models/classifier.pth (torch, 44921 bytes, 6 tensors)

classifier.0.weight f4 [64, 128]
0	0xbccd7c29	-0.025083618
1	0x3cbfc2c1	0.023408296
2	0xbdb25d85	-0.08709244
3	0x3f0020f8	0.50050306
4	0x3daa3cf4	0.08312407
5	0xbdc8e790	-0.09809792
6	0xbebb358e	-0.36564296
7	0x3ee4f425	0.44717517
8	0x3f40a881	0.75257117
9	0x3e1d7107	0.15375148
10	0x3d3db303	0.046313297
11	0xbc9ff1df	-0.019524513
12	0x3d80f745	0.06297163
13	0x3c955eea	0.018233735
14	0x3dcf0092	0.10107531
15	0xbe8925b4	-0.26786578
16	0x3dfa9979	0.12236304
17	0xbec752aa	-0.38930255
18	0xbc74df82	-0.014945867
19	0xbe18afc6	-0.14910802
20	0xbdbc6e6d	-0.092007495
21	0xba5cfd2c	-0.00084300595
22	0x3e1d96b2	0.15389517
23	0xbe5b47f4	-0.21414167
24	0xbe06e231	-0.13172223
25	0x3e10eb6d	0.14152308
26	0xbd9f8197	-0.07788389
27	0x3ee99b5d	0.45626345
28	0xbe87abab	-0.2649816
29	0xbcc37e99	-0.023864077
30	0xbd15ba15	-0.036554415
31	0xbe3dadb0	-0.18523288
32	0xbe3409cb	-0.1758186
33	0xbe069132	-0.13141325
34	0xbd1490f9	-0.03627107
35	0x3eb6d4d9	0.35709265
36	0xbe6e6b8d	-0.23283215
37	0x3e010fd5	0.12603696
38	0x3eb42426	0.3518383
39	0xbe64639d	-0.22303624
40	0x3ded8745	0.11598066
41	0x3b7a0259	0.0038148372
42	0xbe2fe31c	-0.17176479
43	0xbeccf2f5	-0.40029112
44	0x3da1d3c8	0.07901722
45	0xbca2c3a5	-0.019868681
46	0xbecd328b	-0.40077624
47	0xbde4865e	-0.11158441
48	0xbdcd4dfa	-0.100246385
49	0x3db84ae4	0.08998659
50	0x3e56d114	0.20978194
51	0xbccb30f5	-0.024803618
52	0xbe03c815	-0.12869294
53	0x3e11f5d1	0.14253928
54	0x3cb2c31c	0.021821551
55	0x3e73c193	0.23804311
56	0xbe56f72a	-0.20992723
57	0x3e47ee34	0.19524461
58	0xbc89706b	-0.016777238
59	0xbdd76bb3	-0.10518589
60	0x3e9ebeef	0.31005046
61	0x3ea74f30	0.32677603
62	0x3cda9ed9	0.026687073
63	0x3ec6d5aa	0.38834888
64	0x3dae92d4	0.08524099
65	0x3de1a1cf	0.11017191
66	0x3dca3f05	0.09875301
67	0x3e504f59	0.20342769
68	0x3d97881c	0.07399008
69	0xbe569fff	-0.20959471
70	0x3d0cd8e2	0.034386523
71	0xbe5f8b81	-0.2183056
72	0x3f3e2193	0.7426998
73	0x3bde5867	0.0067854407
74	0x3d7664e0	0.060154796
75	0xbdf2ba9e	-0.11852001
76	0xbe8b303f	-0.27185246
77	0x3e74b107	0.23895656
78	0xbe413d84	-0.18871123
79	0xbe0b83bd	-0.13624473
80	0x3cab2bac	0.020894848
81	0x3f1e1d46	0.6176342
82	0xbe2b9042	-0.16754249
83	0xbec098c2	-0.37616545
84	0x3dd141ca	0.102176264
85	0x3c9240a0	0.017853081
86	0xbcd3d558	-0.025858566
87	0x3dcce89d	0.10005305
88	0x3e5bd1db	0.21466772
89	0x3ecc64b9	0.39920595
90	0x3df63694	0.12022129
91	0x3e722c1c	0.23649639
92	0xbeca96e5	-0.39568248
93	0xbdbf6722	-0.09345843
94	0xbef53716	-0.4789359
95	0xbe1bb84f	-0.15207027
96	0x3dcf0c7d	0.10109804
97	0x3e851473	0.25992164
98	0xbd4c78f3	-0.049920034
99	0xbeb6fa4d	-0.3573784
100	0x3e1805ab	0.14845912
101	0x3d846b76	0.06465809
102	0x3d8154d0	0.06315005
103	0xbddb73d0	-0.10715449
104	0xbd4183f9	-0.047245
105	0x3e20af74	0.1569193
106	0xbe5f37cf	-0.21798633
107	0xbdc5cb9b	-0.09657975
108	0xbcbff329	-0.023431377
109	0xbded3a56	-0.11583392
110	0x3e856fec	0.26061952
111	0xbd11dfa8	-0.035613686
112	0x3c22eca0	0.009944111
113	0xbdf222f0	-0.1182307
114	0xbecfa346	-0.40554255
115	0x3d0b222d	0.03396814
116	0xbcab59e4	-0.020916887
117	0x3e542656	0.20717749
118	0x3dbfc6ed	0.09364114
119	0xbd8fdc43	-0.070244335
120	0xbe6a8aa4	-0.2290445
121	0x3e8407a4	0.2578708
122	0xbdad53a2	-0.08463217
123	0x3dce0b2a	0.10060723
124	0x3d9af641	0.075665005
125	0x3e184d91	0.14873339
126	0x3e7eea66	0.24894103
127	0x3e3541ae	0.17700836
128	0x3c8a0a22	0.016850535
129	0x3e12c2ad	0.14332075
130	0xbe2bce3a	-0.16777888
131	0x3e1874fa	0.14888373
132	0xbe34884a	-0.17630115
133	0xbe94c71c	-0.29058158
134	0xbd5d2456	-0.05398973
135	0xbe43f3ba	-0.19135943
136	0xbd5315ea	-0.05153457
137	0x3da0702b	0.07833894
138	0xbe087b6f	-0.13328336
139	0x3e2c09ae	0.16800568
140	0x3c705b08	0.014670141
141	0xbe8d331a	-0.2757805
142	0xbdb1d299	-0.086827464
143	0x3d1ca932	0.038247295
144	0xbe62adfc	-0.22136682
145	0xbec3c7c1	-0.38238338
146	0xbebbd7bd	-0.36688033
147	0xbe47849d	-0.19484182
148	0xbde2bc06	-0.11071019
149	0xbe0f94ad	-0.14021559
150	0xbe8f2bd0	-0.27963114
151	0x3e2bd7b6	0.16781506
152	0x3ec1196c	0.37714708
153	0x3e9f0dc3	0.31065187
154	0xbddf85e1	-0.10914207
155	0x3e98923b	0.29799065
156	0xbe34dd46	-0.17662534
157	0xbe184f8e	-0.14874098
158	0xbe911b99	-0.28341368
159	0x3d4dbf01	0.050230984
160	0x3ec1e77d	0.37871924
161	0xbe746396	-0.23866114
162	0x3e732591	0.23744799
163	0x3eac9059	0.3370388
164	0xbe1bb454	-0.15205508
165	0xbe1a6c49	-0.1508037
166	0x3dda4ebe	0.1065955
167	0xbcd7eb51	-0.026357325
168	0xbe4ac526	-0.19801769
169	0xbe7884d0	-0.24269414
170	0xbbb03dc8	-0.0053784586
171	0x3d66730a	0.056262054
172	0xbeaa0d57	-0.33213302
173	0x3e264aac	0.16239423
174	0x3d670310	0.056399405
175	0xbd2c41f8	-0.0420551
176	0x3d00122b	0.031267326
177	0xbe649f09	-0.22326292
178	0xbd2fc0db	-0.04290853
179	0xbd4193bd	-0.047260035
180	0x3dd61025	0.10452298
181	0xbdc0107e	-0.09378146
182	0x3d2cb5a3	0.04216541
183	0x3ce3009c	0.027710252
184	0xbd804f55	-0.062651314
185	0xbe560c89	-0.2090322
186	0xbdfdbbb1	-0.12389315
187	0x3d74f397	0.059802618
188	0x3dc25efd	0.09490774
189	0x3ddceb0e	0.107870206
190	0x3e898d16	0.26865453
191	0x3ead63f5	0.33865324
192	0x3e72a7c9	0.23696817
193	0x3df3fafd	0.119131066
194	0xbde29b92	-0.11064829
195	0x3de04f23	0.10952594
196	0xbba3e469	-0.005001594
197	0x3d94a470	0.072579265
198	0xbd2d2f7e	-0.04228162
199	0xbeaf8397	-0.34280083
200	0x3dcd7a3f	0.10033082
201	0xbd5488e5	-0.051888365
202	0x3e92b9cf	0.28657386
203	0x3c509330	0.012730405
204	0x3d93205d	0.07183907
205	0xbd676b19	-0.05649862
206	0xbd644884	-0.05573322
207	0x3de8dca5	0.113702096
208	0x3d2ac7b0	0.041694343
209	0x3e8fccc3	0.28085908
210	0xbcd07baf	-0.025449602
211	0x3e443c27	0.19163571
212	0x3dafb1a5	0.08578805
213	0xbc6d3689	-0.014478334
214	0xbd1d368c	-0.038382098
215	0x3eeabe19	0.45848158
216	0x3d9deccd	0.07711182
217	0x3e67db68	0.2264229
218	0x3e071c6d	0.13194437
219	0x3eb73e85	0.35789886
220	0xbe358d89	-0.17729773
221	0x3b836357	0.004009645
222	0xbeb771b9	-0.3582895
223	0x3b9a6844	0.0047121365
224	0xbdcfe8a9	-0.10151798
225	0xbe2e99f6	-0.17050919
226	0xbe1379d4	-0.14401942
227	0x3e2bae70	0.16765761
228	0x3eb19a42	0.34688002
229	0x39d8383e	0.00041240634
230	0xbe803a5e	-0.2504453
231	0xbe20d34b	-0.15705602
232	0xbdac0871	-0.084000476
233	0x3c90b37f	0.017663715
234	0x3f16f39b	0.5896546
235	0x3e3cb1e2	0.18427232
236	0xbe09978a	-0.13436714
237	0x3d324611	0.04352385
238	0x3e647ec5	0.22313984
239	0x3ece8a7a	0.40340024
240	0x3e18a4c9	0.1490661
241	0x3eaa1fb2	0.33227307
242	0xbd9e9ca9	-0.07744724
243	0x3db041ef	0.08606326
244	0x3dfa0c99	0.12209434
245	0xbc307f8c	-0.010772597
246	0xbdb92f4d	-0.09042225
247	0x3d864fb4	0.06558171
248	0x3e65ec70	0.22453475
249	0xba77767d	-0.00094399584
250	0xbe69c4e9	-0.22829022
251	0x3d142edf	0.036177512
252	0xbe233154	-0.15936786
253	0x3df5ab11	0.11995519
254	0xbdc40684	-0.09571555
255	0xbdce5e65	-0.10076598

classifier.0.bias f4 [64]
0	0x3cc2ed77	0.023794873
1	0x3c4bf2a6	0.012447989
2	0x3c9a5fb7	0.018844469
3	0xbbe867c3	-0.0070924475
4	0x3b9e9f31	0.0048407544
5	0x3c0ba2cb	0.0085227
6	0xbd56b5b6	-0.052419387
7	0xbd63beaa	-0.055601753
8	0xbc208df9	-0.009799474
9	0xbd29f2fa	-0.041491486
10	0xbd68f979	-0.05687854
11	0xbd63f64a	-0.0556548
12	0xbc137017	-0.008998892
13	0xbda9e52c	-0.08295664
14	0x3d15c131	0.036561195
15	0x3bc397e2	0.0059690336
16	0x3ce149a3	0.027500933
17	0xbd23b12e	-0.039963894
18	0x3c3b1f5b	0.01142105
19	0xbda115df	-0.078655
20	0xbddcea04	-0.107868224
21	0xbc129b1c	-0.008948114
22	0x3dc383fa	0.09546657
23	0x3bc538ca	0.0060187327
24	0xbd8af3c7	-0.06784778
25	0x3e294e45	0.16533764
26	0xbd8647b7	-0.06556647
27	0xbd62061e	-0.055181615
28	0xbc67c879	-0.0141469175
29	0xbd746345	-0.059664983
30	0x3d8dcbe7	0.06923657
31	0xbdbe77c8	-0.0930019
32	0xbd04ce17	-0.032423105
33	0xbd99b1e2	-0.075046316
34	0x3d747ed8	0.05969128
35	0x3d5705f7	0.052495923
36	0xbd02136e	-0.03175681
37	0x3daef363	0.08542516
38	0x3a8d00e4	0.0010757712
39	0xbd51abf6	-0.051189385
40	0xbc84a9ba	-0.016194213
41	0xbd53b682	-0.051687725
42	0x3bbcc98b	0.0057613305
43	0xbd092bee	-0.03348916
44	0x3d4ad2ea	0.04951755
45	0xbd6e76a8	-0.05821863
46	0xbcfd0d9a	-0.030890275
47	0x3d1a02d2	0.037600346
48	0xbd237798	-0.039908975
49	0xbd2af12a	-0.0417339
50	0xbdaa16ef	-0.083051555
51	0xbdb2249c	-0.08698389
52	0x3d54d312	0.051959105
53	0xbb7b6bed	-0.003836389
54	0x3d6af24e	0.057359986
55	0xbd2884b0	-0.041142166
56	0xbd2c3e25	-0.042051453
57	0x3c94d3e1	0.018167438
58	0xbd5b1419	-0.053485963
59	0xbda72491	-0.08161271
60	0x3dc6eb02	0.09712793
61	0x3d88e175	0.066836275
62	0x3e03fdbc	0.1288976
63	0x3b79723a	0.003806247

classifier.3.weight f4 [32, 64]
0	0x3d9311ea	0.07181151
1	0x3d167a6a	0.036737837
2	0x3c2814e1	0.010258884
3	0xbef09cf3	-0.46994743
4	0xbdc9435e	-0.098273024
5	0x3dfb7555	0.12278239
6	0xbf3b9a1c	-0.7328203
7	0xbca432a2	-0.020043675
8	0x3cba8095	0.02276639
9	0x3ccdb2c8	0.025109664
10	0x3ab5d777	0.0013873418
11	0x3e0e37d8	0.1388849
12	0xbe806875	-0.25079694
13	0x3e12fe28	0.14354765
14	0xbf9cc267	-1.2246827
15	0x3d2c8056	0.04211458
16	0x3e2030b6	0.15643582
17	0x3e713927	0.23556958
18	0x3d907a17	0.07054537
19	0xbd23ed1d	-0.04002105
20	0x3e96f4bf	0.294836
21	0xbd57649f	-0.052586194
22	0xbe845d79	-0.25852564
23	0xbf306997	-0.6891112
24	0xbf2f8ce1	-0.6857434
25	0x3f03c000	0.51464844
26	0xbe015a05	-0.12631996
27	0x3b91a6e5	0.004444944
28	0xbf524a06	-0.821442
29	0x3e1cdd3a	0.15318766
30	0x3e8dbe52	0.27684265
31	0xbf190d34	-0.5978577
32	0x3dab4d1d	0.083643176
33	0x3baaa21c	0.005207313
34	0x3e2972a4	0.16547638
35	0x3cfab638	0.030604467
36	0xbf8384b1	-1.0274869
37	0x3c1b9940	0.009496987
38	0x3e320002	0.17382815
39	0x3ef8342a	0.48477298
40	0x3e5616b1	0.20907094
41	0x3c599699	0.013280534
42	0x3e35bc21	0.17747547
43	0xbf082e9d	-0.53196126
44	0x3e84aa84	0.25911343
45	0xbdd356cf	-0.10319292
46	0x3e2f2de9	0.17107357
47	0xbdd725d1	-0.1050526
48	0x3e2f5937	0.17123877
49	0xbd4ff867	-0.050774004
50	0xbefe36e2	-0.49651247
51	0xbdd18bb7	-0.102317266
52	0x3d563f60	0.052306533
53	0xbf64c588	-0.8936391
54	0xbedc9474	-0.4308201
55	0xbdee6012	-0.11639418
56	0xbe0dca79	-0.13846768
57	0xbf958e22	-1.1684
58	0x3d7ba68d	0.061438132
59	0x3e1dd073	0.15411548
60	0x3e1f9e16	0.15587649
61	0x3d3472e2	0.044054873
62	0x3e5fd80f	0.21859764
63	0xbde84ec2	-0.11343147
64	0xbe67d166	-0.22638473
65	0xbeac09c6	-0.33601207
66	0x3b02cd97	0.0019958967
67	0x3e838f7f	0.25695416
68	0xbdaed63d	-0.085369565
69	0xbe7757f8	-0.24154651
70	0xbd457e1d	-0.048215974
71	0xbe03f54c	-0.12886542
72	0xbdf84b07	-0.12123685
73	0xbca98761	-0.020694437
74	0xbec2856d	-0.3799242
75	0xbd92dbae	-0.07170807
76	0xbe585a4d	-0.21128197
77	0xbe0d0e67	-0.13775025
78	0xbda028d3	-0.078202866
79	0xbee951d4	-0.45570242
80	0xbeb60526	-0.35550803
81	0xbf4134a6	-0.7547096
82	0x3d9566d2	0.07295002
83	0xbd9fa9a1	-0.07796026
84	0xbebb796b	-0.36616072
85	0xbf1cf27c	-0.613075
86	0x3ef18702	0.47173315
87	0x3ee2a411	0.44265798
88	0x3f347f23	0.70506495
89	0xbf212790	-0.6295099
90	0x3de3fb30	0.111318946
91	0xbdfa3ec6	-0.12219004
92	0x3e73e3d7	0.23817383
93	0xbf0afdf3	-0.54293746
94	0x3d1a471d	0.037665475
95	0x3eb5f3ee	0.35537666
96	0xbeb046c2	-0.34428984
97	0xbc344b68	-0.011004306
98	0xbe4c318c	-0.19940776
99	0xbc36adc9	-0.011149832
100	0x3e823b35	0.25435796
101	0x3d959131	0.07303084
102	0xbebb4413	-0.36575374
103	0x3d9b84f4	0.07593718
104	0xbeb28b29	-0.34871796
105	0xbe24583a	-0.16049281
106	0xbf25bbf6	-0.6473993
107	0x3e7c8b67	0.24662553
108	0xbf10247d	-0.56305677
109	0xbe6f64f1	-0.2337835
110	0xbf764b1d	-0.96208364
111	0xbb6ebd40	-0.003642872
112	0xbe323e0b	-0.1740648
113	0x3dc070bf	0.093965046
114	0x3e56c0ee	0.20972034
115	0xbd16a7e0	-0.03678119
116	0x3d845996	0.064624
117	0x3ea68f80	0.32531357
118	0x3e3bfefc	0.18358988
119	0xbeb1497c	-0.34626377
120	0xbe98c515	-0.29837862
121	0x3e5dff90	0.2167952
122	0xbbd62f27	-0.0065363827
123	0xbf41e4d3	-0.75739783
124	0xbe8139d1	-0.25239423
125	0xbee147bb	-0.44000039
126	0xbea36c10	-0.31918383
127	0x3da44ac5	0.08022074
128	0x3e2a2793	0.16616659
129	0x3ef02af3	0.46907768
130	0xbc06d98e	-0.00823058
131	0xbe3e274e	-0.18569681
132	0xbc122329	-0.008919516
133	0x3eb85d8e	0.36008877
134	0xbc99b813	-0.018764531
135	0x3c2ed294	0.010670323
136	0x3ed80ca9	0.4219716
137	0xbe02dda8	-0.12779868
138	0x3ec053ff	0.37564084
139	0x3e90ebfa	0.28305036
140	0x3e0b7d6d	0.13622065
141	0x3ea6eafa	0.32601148
142	0xbdb2d6a9	-0.087323494
143	0x3f0a701d	0.5407732
144	0x3cd97dc1	0.026549222
145	0x3e1f4744	0.1555453
146	0xbda6da13	-0.08147063
147	0xbd2f08f7	-0.04273316
148	0x3ead0d87	0.33799383
149	0x3ececbbd	0.40389815
150	0xbe275e9d	-0.16344686
151	0xbe1906ca	-0.14943996
152	0xbe1cb95f	-0.15305088
153	0x3f8a3c95	1.0799738
154	0xbd85fd2e	-0.06542431
155	0xbbc1f6eb	-0.0059193275
156	0x3ce28981	0.027653458
157	0x3e968f45	0.2940618
158	0x3e5e0782	0.21682552
159	0xbddcc1a3	-0.10779121
160	0x3e8903a9	0.26760605
161	0xbc321e9c	-0.010871556
162	0x3e95e5c0	0.29276848
163	0x3ebe14f1	0.37125352
164	0x3ca80794	0.020511426
165	0x3d2713c1	0.040790323
166	0xbd9f5ac6	-0.077809855
167	0x3f003733	0.5008423
168	0x3f25cea9	0.64768463
169	0xbe325671	-0.17415787
170	0xbd705148	-0.058671266
171	0x3c152fa4	0.009105597
172	0x3eac69fd	0.33674613
173	0x3e8d3dad	0.27586117
174	0xbcf89ae9	-0.030347304
175	0x3dd1a153	0.10235848
176	0x3ed940f0	0.42432356
177	0xbd01b11c	-0.031663045
178	0xbe2bf8cb	-0.16794126
179	0x3d343ad8	0.04400143
180	0xbd9d341d	-0.076759554
181	0x3bb1d6b8	0.005427208
182	0xbd3d1c40	-0.04616952
183	0x3e49f338	0.19721687
184	0x3ea45d77	0.32102558
185	0xbc33c7e7	-0.010972953
186	0x3d79275e	0.06082856
187	0x3ea2b5ad	0.31779233
188	0xbe8f3450	-0.279696
189	0x3e94b24e	0.29042286
190	0x3f0b210d	0.54347306
191	0xbda2a99c	-0.07942507
192	0x3ce2f6f8	0.027705655
193	0xbcced666	-0.025248718
194	0xbd897f1d	-0.06713698
195	0xbed2bc54	-0.41159308
196	0x3c960d19	0.018316792
197	0x3e92411f	0.28565308
198	0xbea15013	-0.31506404
199	0x3e21659a	0.15761414
200	0x3e6bf06c	0.23040932
201	0xbabe9d49	-0.0014542724
202	0x3ee58090	0.44824648
203	0x3e81346d	0.2523531
204	0x3d799b21	0.060938958
205	0x3df68b5b	0.12038299
206	0xbf2b703b	-0.66968125
207	0x3e75e0f4	0.24011594
208	0x3e2c9bd9	0.16856326
209	0x3e6e877d	0.23293872
210	0x3d5c1105	0.05372717
211	0x3d4d1af8	0.050074548
212	0x3ed54275	0.41652265
213	0x3e6a910d	0.22906895
214	0xbeaef2c0	-0.3416958
215	0xbf2306b5	-0.6368211
216	0xbf00223c	-0.5005224
217	0x3fa2315f	1.2671317
218	0xba88ab00	-0.0010426939
219	0x3ca5597e	0.020184275
220	0xbe60fe2c	-0.21971959
221	0x3e2147e1	0.15750076
222	0x3d0e1761	0.034690265
223	0xbd8637b9	-0.06553597
224	0x3e2f5cd4	0.17125255
225	0xbdd28d7d	-0.10280893
226	0xbe1759f7	-0.14780413
227	0x3c2764b2	0.010216879
228	0xbe84ed8a	-0.25962478
229	0x3db1aeca	0.086759165
230	0x3e263e0e	0.1623461
231	0x3e4f2d23	0.20232062
232	0x3ef62e58	0.48082232
233	0x3db7d5d4	0.08976331
234	0x3dfba23f	0.12286805
235	0xbe6dfba9	-0.23240532
236	0x3ea0a0e7	0.3137276
237	0x3e661aef	0.22471212
238	0x3df7720a	0.12082298
239	0xbca5f980	-0.020260572
240	0xbc7178cd	-0.014738274
241	0x3d4ce4ec	0.050023004
242	0xbf02dea4	-0.5112097
243	0xbc9e7096	-0.019340795
244	0x3e05b4b9	0.13057221
245	0xbe00de6e	-0.1258485
246	0xbebe7afa	-0.372032
247	0xbdf8a0da	-0.12140055
248	0x3e735d83	0.2376614
249	0xbeef9ace	-0.46797794
250	0x3c9543a0	0.018220723
251	0x3e2f11c6	0.17096624
252	0xbc764c7f	-0.0150328865
253	0x3db8c8c9	0.09022672
254	0x3ed69370	0.4190936
255	0x3d34505a	0.04402194

classifier.3.bias f4 [32]
0	0x3d117680	0.0355134
1	0x3de27573	0.11057558
2	0xbb44e9bf	-0.003004655
3	0x3d8633de	0.06552862
4	0x3da8d177	0.08243077
5	0x3d95ee9a	0.073209
6	0x3d81fab1	0.06346644
7	0x3da4a267	0.08038788
8	0x3d6bcbca	0.057567395
9	0x3d8ad2ad	0.067784645
10	0x3d55feb0	0.052244842
11	0x3e1a7ccf	0.15086673
12	0x3df7d77a	0.12101646
13	0x3d958a94	0.07301822
14	0x3da82f3e	0.08212136
15	0x3dc1d9d9	0.09465379
16	0x3ddfd0ab	0.10928472
17	0xbc0dea68	-0.008661844
18	0x3cba3e74	0.022734858
19	0x3df3d80f	0.11906444
20	0x3e08cbc0	0.13358974
21	0x3d7f3fc3	0.062316667
22	0x3d51c8bb	0.051216822
23	0x3d04ddfe	0.03243827
24	0x3dc304b8	0.095223844
25	0x3d6af7cf	0.057365235
26	0x3d801dde	0.06255697
27	0x3d4c4a3c	0.049875483
28	0x3d3a9096	0.045548044
29	0x3d6a3240	0.05717683
30	0x3d01c1ad	0.031678844
31	0x3d8c3521	0.06846071

classifier.6.weight f4 [2, 32]
0	0x3f264242	0.6494485
1	0xbf6215b4	-0.88314366
2	0x3ee93dd4	0.45554984
3	0x3f0e7a87	0.5565571
4	0x3f02438b	0.5088431
5	0x3eedaa37	0.46418926
6	0xbf14601d	-0.5795916
7	0x3eb17c35	0.34665075
8	0x3ec4575a	0.38347894
9	0x3ef6493c	0.48102748
10	0x3efc464a	0.49272376
11	0xbf274ca4	-0.6535132
12	0xbf3542ee	-0.7080525
13	0x3ee973e2	0.45596224
14	0xbefd9b69	-0.4953263
15	0xbf3af2f2	-0.73026955
16	0xbf81b6c0	-1.0133896
17	0xbf4be4c4	-0.79645944
18	0xbf31c98e	-0.69448173
19	0xbf96aebf	-1.1772078
20	0xbf3cd23f	-0.7375831
21	0x3f1c546c	0.6106632
22	0x3f29e10a	0.6635901
23	0x3f2689d5	0.65054065
24	0x3ee6348d	0.44961968
25	0x3eda0748	0.4258368
26	0x3f331fee	0.69970596
27	0x3f33636d	0.70073587
28	0x3e89678a	0.26836807
29	0x3f07e72d	0.5308712
30	0x3f737782	0.9510423
31	0x3f06d63a	0.52670634
32	0xbf22f933	-0.636615
33	0x3f54ec66	0.83173215
34	0xbe92650c	-0.28592718
35	0xbed566cb	-0.41679987
36	0xbeb46d73	-0.35239753
37	0xbe67e6e6	-0.22646675
38	0x3f25372c	0.6453731
39	0xbea98045	-0.33105674
40	0xbef0ae25	-0.47007862
41	0xbed6e1d3	-0.41969165
42	0xbe667d07	-0.22508632
43	0x3f2799a8	0.65468836
44	0x3f5f5d67	0.87251896
45	0xbf25b02a	-0.6472193
46	0x3f1a0ec0	0.60178757
47	0x3f094315	0.53617984
48	0x3f821563	1.0162777
49	0x3f35721f	0.7087726
50	0x3f1e0ec8	0.61741304
51	0x3f892fd3	1.071772
52	0x3f004611	0.5010691
53	0xbf0d8da8	-0.55294275
54	0xbf209c30	-0.62738323
55	0xbf3e8f26	-0.7443718
56	0xbe918c6d	-0.2842745
57	0xbee60db2	-0.44932324
58	0xbef7f8b3	-0.4843193
59	0xbef2ff05	-0.4746019
60	0xbf026087	-0.5092854
61	0xbf471577	-0.7776713
62	0xbf5abf55	-0.854482
63	0xbed578da	-0.41693765

classifier.6.bias f4 [2]
0	0xbe6bd2ff	-0.23029707
1	0x3daeb93f	0.08531427
