models/encoder.pth (torch, 286808 bytes, 22 tensors)

conv1.weight f4 [32, 3, 8]
0.020924727 -0.11512307 0.22602466 -0.16215259 -0.07223549 0.22048636 -0.15999275 0.04126433
0.022205243 0.0028315557 -0.12904891 0.22418237 -0.14206755 -0.034923516 0.10498184 -0.04677447
-0.005644123 -0.008644981 0.010815329 0.082832046 -0.21240085 0.23817544 -0.13704073 0.03407861
0.06280252 0.024617169 -0.022081545 0.20137243 -0.13020049 0.12928712 -0.094149426 -0.084583096
-0.137601 -0.27971983 0.03592137 -0.18577874 0.123792335 0.1576654 0.20023026 0.13580826
0.06640559 0.112277806 0.14621273 0.131235 0.0958321 -0.06752297 -0.10551205 -0.22006366
0.016383631 0.010119017 -0.079826646 -0.063332945 0.09382471 0.12283526 0.0059366063 -0.10447358
0.06461417 0.13068844 -0.073321536 -0.103034884 -0.33847857 0.0162116 0.28391576 0.018182144
-0.09636469 0.115064025 0.09245863 0.01768747 -0.11285475 -0.02809268 -0.002080386 0.016398432
0.18664752 0.25107685 0.3808006 0.26300916 0.1689834 0.079250686 -0.044888746 0.24768117
-0.15513279 -0.023629671 -0.06219489 -0.020073643 -0.08376607 -0.025728855 0.09529791 -0.2010145
0.045689113 -0.11342169 0.030945921 -0.0034014273 0.022015039 -0.06191801 0.04497816 0.012238405
-0.10493401 0.0071441936 -0.17573142 -0.047253586 -0.11672461 -0.24501339 0.1391778 -0.10818846
-0.10483932 -0.10369422 -0.043037876 -0.1983048 -0.105114914 -0.09138603 -0.16213553 0.018376295
0.00302512 -0.13129546 -0.04618117 -0.1312395 -0.07461086 -0.19717064 0.0929787 -0.07831758
0.009261802 -0.00475856 0.031675488 -0.03777629 0.04184417 0.03415836 -0.084118105 0.06273076
-0.028067214 0.1616347 -0.15894215 0.12121652 0.17660908 -0.026218515 -0.10402982 0.101955436
0.22080572 0.10166849 0.26228893 0.33795962 0.22808349 0.16944295 0.010733539 0.22256613
0.18750077 -0.011230749 0.17606193 0.24483287 -0.05902675 -0.17431268 -0.29678982 -0.16484848
0.06775742 0.13032001 0.10075723 0.065626845 0.10907953 -0.041228473 -0.044299517 -0.21033779
0.006464218 0.018591166 0.0003551078 0.114486106 0.020805787 0.07036806 -0.064285226 -0.09001379
0.03169354 -0.06102062 0.039948527 -0.046532933 0.09103442 -0.062016826 0.03610018 -0.018149592
0.24630702 0.30394554 0.27918342 -0.08024949 -0.30758393 -0.25906396 -0.1936534 0.008925098
-0.009985979 -0.045625124 0.019510552 0.030951118 -0.011639102 -0.00826756 -0.015310424 0.02811733
0.03871752 -0.08444208 0.2135812 -0.113733634 0.2514459 -0.060175 0.08333794 0.036915384
-0.008260123 -0.012776714 0.098651595 -0.074102655 0.06201716 0.14053725 -0.10680243 0.045862127
-0.0048578447 -0.039495043 -0.071154624 -0.28243214 -0.1820241 -0.2458601 -0.13186759 -0.10655109
-0.2764907 -0.27528763 -0.22052667 0.071754664 0.20288496 0.1510293 0.26300713 0.09092335
-0.039305102 0.0024646642 -0.06213285 0.09120281 -0.051290587 -0.062077545 0.08218285 0.04140926
-0.038712442 0.019653834 -0.030938042 -0.038873315 0.11263746 0.025133314 -0.036847275 -0.009258105
0.22008009 0.17364652 0.07544866 0.058731023 -0.10394153 -0.104943834 -0.20346853 -0.11411241
-0.1845423 -0.13943502 -0.052429702 0.119909935 0.0710927 0.025874348 0.09348004 0.06392998
00000000: 556a ab3c a5c5 ebbd 0273 673e 540b 26be
00000010: 33f0 93bd 2dc7 613e 24d5 23be c904 293d
00000020: c5e7 b53c 9f91 393b 6625 04be 1090 653e
00000030: 287a 11be f60b 0fbd b800 d73d 9696 3fbd
00000040: 56f2 b8bb aea3 0dbc c732 313c d9a3 a93d
00000050: 9c7f 59be 43e4 733e 6854 0cbe 0396 0b3d
00000060: 9c9e 803d f2a9 c93c 5be4 b4bc 9334 4e3e
00000070: 4753 05be d863 043e 6ad1 c0bd e739 adbd
00000080: 47e7 0cbe 7037 8fbe 4922 133d c83c 3ebe
00000090: d686 fd3d 0a73 213e 2909 4d3e 5211 0b3e
000000a0: a7ff 873d e8f1 e53d cab8 153e 7862 063e
000000b0: 9f43 c43d 7c49 8abd b416 d8bd 5e58 61be
000000c0: f736 863c 3cca 253c 277c a3bd b4b4 81bd
000000d0: 2b27 c03d 0e91 fb3d dd87 c23b 3ff6 d5bd
000000e0: 6f54 843d 31d3 053e 9a29 96bd f403 d3bd
000000f0: 104d adbe 30ce 843c 685d 913e b8f2 943c
00000100: da5a c5bd b0a6 eb3d f35a bd3d 50e5 903c
00000110: 6420 e7bd 9f22 e6bc 1657 08bb 0156 863c
00000120: 8720 3f3e 258d 803e 4cf8 c23e 23a9 863e
00000130: fc09 2d3e 2f4e a23d 43dd 37bd 22a0 7d3e
00000140: 21db 1ebe 0393 c1bc 12c0 7ebd 7b71 a4bc
00000150: 8c8d abbd 52c5 d2bc 8d2b c33d bfd6 4dbe
00000160: 8224 3b3d a249 e8bd 4d82 fd3c 7bea 5ebb
00000170: e258 b43c bd9d 7dbd 053b 383d 9783 483c
00000180: a4e7 d6bd d719 ea3b f0f2 33be fa8c 41bd
00000190: 500d efbd cae4 7abe a084 0e3e e991 ddbd
000001a0: ffb5 d6bd a35d d4bd 7c48 30bd 6a10 4bbe
000001b0: 7d46 d7bd 9928 bbbd db06 26be e289 963c
000001c0: 1741 463b 5172 06be 7728 3dbd a663 06be
000001d0: 94cd 98bd 1ae7 49be 9e6b be3d f864 a0bd
000001e0: d0be 173c b2ed 9bbb 28be 013d 50bb 1abd
000001f0: cb64 2b3d a3e9 0b3d 1d46 acbd fc78 803d
00000200: 37ed e5bc 9183 253e bbc1 22be 5e40 f83d
00000210: 03d9 343e 36c8 d6bc 960d d5bd 03ce d03d
00000220: e51a 623e 9237 d03d bc4a 863e 0b09 ad3e
00000230: b88e 693e 7482 2d3e badb 2f3c 60e8 633e
00000240: 3400 403e 2d01 38bc 9449 343e 78b5 7a3e
00000250: 09c6 71bd 067f 32be d6f4 97be 0ace 28be
00000260: 67c4 8a3d 9c72 053e ce59 ce3d 5e67 863d
00000270: 1765 df3d 30df 28bd 6973 35bd ca62 57be
00000280: cad1 d33b 804c 983c c32d ba39 b177 ea3d
00000290: e670 aa3c 211d 903d f9a7 83bd 2659 b8bd
000002a0: 16d1 013d c2f0 79bd 11a1 233d 5199 3ebd
000002b0: 4170 ba3d 5b05 7ebd c8dd 133d 74ae 94bc
000002c0: e837 7c3e c09e 9b3e 21f1 8e3e d859 a4bd
000002d0: a47b 9dbe 08a4 84be 144d 46be 933a 123c
000002e0: 3b9c 23bc 69e1 3abd 98d4 9f3c 338d fd3c
000002f0: efb1 3ebc a974 07bc 93d8 7abc 5156 e63c
00000300: 4396 1e3d f8ef acbd 08b5 5a3e 2eed e8bd
00000310: 84bd 803e 107a 76bd 15ad aa3d 9634 173d
00000320: 7855 07bc 6c55 51bc d909 ca3d 22c3 97bd
00000330: b505 7e3d ffe8 0f3e 3bbb dabd edd9 3b3d
00000340: 8e2e 9fbb 8ec5 21bd 84b9 91bd f29a 90be
00000350: 8764 3abe c0c2 7bbe 4c08 07be 7537 dabd
00000360: 3090 8dbe 80f2 8cbe bed1 61be 1cf4 923d
00000370: 13c1 4f3e 6da7 1a3e dfa8 863e 0536 ba3d
00000380: 63fe 20bd 3486 213b 047f 7ebd 8ac8 ba3d
00000390: 1416 52bd 0645 7ebd 7b4f a83d c29c 293d
000003a0: f090 1ebd 1401 a13c c771 fdbc a039 1fbd
000003b0: 78ae e63d 61e4 cd3c 2bed 16bd 4faf 17bc
000003c0: ad5c 613e 65d0 313e d484 9a3d f18f 703d
000003d0: 4cdf d4bd cbec d6bd 0e5a 50be c4b3 e9bd
000003e0: a8f8 3cbe 0ec8 0ebe 87c0 56bd 5793 f53d
000003f0: 0d99 913d 71f6 d33c 7772 bf3d b9ed 823d

conv1.bias f4 [32]
-0.07123376 0.09240246 0.018220648 0.012202634 0.14050375 -0.087101765 0.21031989 -0.1265494
-0.106651545 0.056322694 0.14403057 0.014934313 0.11051888 0.04559318 0.074388556 0.11262551
-0.08960959 0.009109427 0.14208557 0.08636564 0.19783942 0.053497534 -0.12637523 -0.091750085
-0.18185462 0.093084075 0.19043991 0.18462658 0.038539317 -0.11293009 -0.10593508 0.12563424
00000000: 01e3 91bd 803d bd3d 7843 953c 8eed 473c
00000010: 37e0 0f3e 6962 b2bd 195e 573e 2a96 01be
00000020: 206c dabd a0b2 663d c07c 133e 0caf 743c
00000030: b957 e23d eabf 3a3d 0759 983d 34a8 e63d
00000040: 3c85 b7bd b53f 153c e17e 113e 78e0 b03d
00000050: 6b96 4a3e 3b20 5b3d 8268 01be 78e7 bbbd
00000060: 1938 3abe dda2 be3d ae02 433e c00e 3d3e
00000070: 67db 1d3d e447 e7bd 7ef4 d8bd 43a6 003e

bn1.weight f4 [32]
1.2643218 0.86941886 1.0730016 0.9086113 0.91476715 0.9669292 0.8165007 1.1895698
0.9189178 1.177088 1.1237082 0.9608786 0.9438589 0.89364624 0.9460567 0.9928147
0.92400074 1.0390762 1.0005579 1.0759053 1.0002681 0.8488415 1.0051591 1.1262273
0.81382895 1.1254967 1.0364258 1.1899717 0.80555177 1.0111257 0.9599089 1.1049255
00000000: 4cd5 a13f 3c92 5e3f 1e58 893f c09a 683f
00000010: 2e2e 6a3f ac88 773f 3106 513f d343 983f
00000020: 323e 6b3f d2aa 963f acd5 8f3f 24fc 753f
00000030: bda0 713f 00c6 643f c630 723f 1b29 7e3f
00000040: 508b 6c3f 7300 853f 4812 803f 44b7 893f
00000050: c908 803f ad4d 593f 0ea9 803f 3728 903f
00000060: 1857 503f 4710 903f 9aa9 843f fe50 983f
00000070: a438 4e3f 916c 813f 97bc 753f 336e 8d3f

bn1.bias f4 [32]
-0.022586972 -0.02040967 -0.02536307 0.037469536 -0.015814086 -0.051944952 -0.021592004 -0.01245575
-0.021746373 -0.010903945 -0.01692567 0.030441506 -0.022707071 -0.015863722 0.002728031 -0.019429522
0.011693146 -0.035585005 0.026917692 -0.01406335 -0.012228246 0.014959995 -0.007433266 -0.005002133
-0.032151144 -0.013818156 0.0007720786 -0.027416196 -0.019538455 0.022578422 0.006833565 -0.018524531
00000000: 5008 b9bc 2e32 a7bc 37c6 cfbc a879 193d
00000010: 8b8c 81bc 3bc4 54bd b7e1 b0bc 3413 4cbc
00000020: 7325 b2bc 76a6 32bc b4a7 8abc 7760 f93c
00000030: 2e04 babc a3f4 81bc c4c8 323b a92a 9fbc
00000040: 9c94 3f3c 95c1 11bd 7e82 dc3c f769 66bc
00000050: fb58 48bc c41a 753c c192 f3bb efe8 a3bb
00000060: ebb0 03bd 8c65 62bc 5165 4a3a ee97 e0bc
00000070: 1c0f a0bc 62f6 b83c 19ec df3b c2c0 97bc

bn1.running_mean f4 [32]
-0.07154665 0.087730184 0.018094955 0.03101288 0.15015022 -0.14387427 0.20734592 -0.12615076
-0.061241727 0.055975273 0.14431038 0.0047391593 0.11080318 0.0047253496 0.13028872 0.1127954
-0.11466043 0.00893667 0.16834565 0.086756274 0.19715443 0.10451348 -0.12624256 -0.09243434
-0.18258573 0.09317596 0.18295626 0.18469043 0.02604121 -0.16642405 -0.1048103 0.12544024
00000000: 0d87 92bd e2ab b33d df3b 943c b90e fe3c
00000010: fbc0 193e c753 13be 7d52 543e aa2d 01be
00000020: 9bd8 7abd 5446 653d 1ac6 133e f34a 9b3b
00000030: c7ec e23d 1bd7 9a3b 686a 053e 4601 e73d
00000040: 16d3 eabd 1c6b 123c cd62 2c3e 46ad b13d
00000050: dae2 493e 2a0b d63d bb45 01be 374e bdbd
00000060: c1f7 3abe 0ad3 be3d e358 3b3e 7d1f 3d3e
00000070: 6054 d53c 116b 2abe c8a6 d6bd 6873 003e

bn1.running_var f4 [32]
0.027673258 0.45226783 0.14968254 1.5841976 0.9253239 1.6195049 0.49174613 0.53922856
0.9280919 0.48477137 0.33976683 1.3997784 0.25109375 1.669827 2.5757139 0.19866206
1.8712083 0.11145936 1.23222 0.3875681 0.42281413 1.5035968 0.41798666 0.4978447
0.17152202 0.03841475 2.6558754 0.24528396 0.34815478 2.9528372 2.454444 0.06832987
00000000: 07b3 e23c a68f e73e 6146 193e fdc6 ca3f
00000010: 07e2 6c3f f04b cf3f 26c6 fb3e e20a 0a3f
00000020: 6e97 6d3f f433 f83e ebf5 ad3e f02b b33f
00000030: 5c8f 803e e4bc d53f 7fd8 2440 116e 4b3e
00000040: c183 ef3f ce44 e43d 63b9 9d3f 536f c63e
00000050: 187b d83e dc75 c03f 5902 d63e 80e5 fe3e
00000060: 78a3 2f3e c958 1d3d ddf9 2940 b82b 7b3e
00000070: 5841 b23e 49fb 3c40 9c15 1d40 88f0 8b3d

conv2.weight f4 [64, 32, 5]
-0.08627597 -0.16984378 -0.26486284 -0.09170253 0.052927375 -0.087686874 -0.08279815 -0.06613232
-0.111306734 -0.025283564 0.011621595 0.1003468 0.0012025953 -0.028662317 0.05703737 -0.06597073
-0.053153515 -0.12831706 0.0033624682 0.012559961 0.0035599417 -0.11281134 -0.039422404 -0.01151833
0.048022255 -0.0112557355 -0.043335974 -0.11209096 -0.053467073 0.013506437 -0.019637885 0.010591393
-0.0019194146 0.0067681405 0.036814574 -0.051713713 -0.022972284 -0.14962359 -0.03891407 -0.06418156
-0.017608415 -0.03101396 -0.19482379 -0.0043023136 0.016653419 -0.056966655 -0.01596259 -0.13408905
-0.043226358 -0.020560391 0.0003824989 0.029839147 -0.052854322 -0.055533808 -0.007877145 0.002305151
-0.061744355 -0.18682453 -0.011936723 0.005952691 -0.02290213 0.008181049 0.004610207 0.0021459332
0.012841886 -0.04015815 0.007798274 -0.10192099 0.04090633 0.0269436 0.08827179 -0.123921536
-0.07078824 -0.034587935 -0.093907036 0.05278114 -0.017957784 -0.05232214 -0.013797918 0.051253997
0.0068061207 -0.069792435 -0.059094958 -0.046508227 -0.001251696 0.017573241 0.0763104 -0.04310609
0.013219761 0.063830435 0.029639851 -0.04112655 -0.1449285 -0.09642893 -0.02705843 -0.020658601
-0.059559315 -0.080221415 -0.009733095 -0.013086525 0.05670838 0.05961488 0.037869193 0.058241807
-0.0025178595 0.03405564 -0.034215845 -0.06391813 -0.04939452 0.032186627 -0.1123052 -0.097536564
-0.1336526 -0.019278238 -0.043986283 -0.029965883 -0.04255259 -0.038946815 0.008266898 -0.03821619
-0.13001513 -0.08261274 -0.08034702 -0.0015352226 -0.012393209 0.001164103 -0.061139833 -0.17725122
-0.061176088 0.05583464 0.06666129 -0.10014708 -0.1857056 -0.035457477 -0.00592488 0.045611992
0.031184249 -0.016380638 0.048540547 0.09140535 -0.042985726 0.007403832 -0.06629919 -0.08819547
0.087406725 -0.08772673 -0.13448648 -0.06526834 0.005431389 0.00808095 -0.11461229 -0.121288024
-0.060235523 -0.0116021475 0.106291875 0.063141756 -0.0044941544 -0.123033024 -0.040609352 0.051237423
-0.07507433 0.1505791 0.11326401 -0.09817978 -0.11267175 -0.013723759 0.011040292 -0.067372255
0.054317012 0.004756464 -0.056448128 -0.0019238904 0.011579045 0.07319288 -0.16751677 -0.017452605
0.033805154 -0.015127386 0.0072082244 -0.096730486 -0.012333518 0.027992383 -0.0078012953 0.04959592
-0.087202035 0.049914002 -0.06373394 0.06488577 0.011471595 -0.003250874 -0.012815707 -0.06754769
0.013858549 -0.050185174 0.03784055 0.028295407 -0.046240505 0.011398784 0.07452364 -0.06611928
-0.010758255 -0.006581518 -0.02561347 -0.0041963127 0.018985461 0.0411928 -0.026613336 0.10077851
0.044467606 0.029905697 -0.08455361 0.10454093 0.002163575 -0.019860463 0.04901495 -0.0746597
-0.030535482 -0.0027459308 0.06872203 0.0535512 0.04668064 -0.11297558 0.20360963 -0.085936934
0.20103763 -0.045292076 0.015163712 0.054858796 -0.03444369 -0.06929899 -0.020698855 0.023626488
0.029719979 0.010966291 -0.05523686 -0.108037315 0.06848955 0.10136446 0.017851364 -0.088937126
-0.062273365 -0.039145693 0.059143644 -0.046827544 0.013544169 0.062090985 -0.074752435 0.13866617
-0.015626738 -0.19456236 -0.018556183 -0.11244845 0.019375306 0.015356089 0.015613121 0.02917668
00000000: 75b1 b0bd 87eb 2dbe 1a9c 87be 89ce bbbd
00000010: 60ca 583d 2d95 b3bd 1492 a9bd 6270 87bd
00000020: c9f4 e3bd 7a1f cfbc 8168 3e3c a082 cd3d
00000030: 67a0 9d3a 3ccd eabc 04a0 693d a91b 87bd
00000040: 80b7 59bd 8c65 03be db5c 5c3b 4bc8 4d3c
00000050: e94d 693b a209 e7bd 6379 21bd 61b7 3cbc
00000060: fcb2 443d fa69 38bc 1081 31bd f28f e5bd
00000070: 4a00 5bbd 1a4a 5d3c a1df a0bc 8687 2d3c
00000080: de94 fbba 47c7 dd3b e1ca 163d c2d1 53bd
00000090: 5f30 bcbc ed36 19be 5c64 1fbd 9f71 83bd
000000a0: 863f 90bc fd10 febc e37f 47be 6cfa 8cbb
000000b0: c06c 883c de55 69bd fac3 82bc a44e 09be
000000c0: 1f0e 31bd 446e a8bc 228a c839 3a71 f43c
000000d0: c67d 58bd 6b77 63bd 240f 01bc 0412 173b
000000e0: a6e7 7cbd ee4e 3fbe 3f92 43bc cb0e c33b
000000f0: 3f9d bbbc ce09 063c 3811 973b c9a2 0c3b
00000100: c666 523c df7c 24bd aa88 ff3b f4bb d0bd
00000110: 658d 273d d3b8 dc3c d7c7 b43d 93ca fdbd
00000120: 6df9 90bd 14ac 0dbd 5552 c0bd 0931 583d
00000130: 341c 93bc be4f 56bd aa10 62bc b6ef 513d
00000140: e105 df3b 56ef 8ebd 8e0d 72bd 697f 3ebd
00000150: f30f a4ba c2f5 8f3c a148 9c3d 0390 30bd
00000160: b297 583c 88b9 823d 46cf f23c 5074 28bd
00000170: 2368 14be 887c c5bd a4a9 ddbc 3a3c a9bc
00000180: 78f4 73bd 204b a4bd 8f77 1fbc dd68 56bc
00000190: 0c47 683d bb2e 743d ba1c 1b3d f68e 6e3d
000001a0: ac02 25bb ed7d 0b3d ea25 0cbd 82e7 82bd
000001b0: e951 4abd 20d6 033d 4500 e6bd 40c1 c7bd
000001c0: 3adc 08be 65ed 9dbc f62a 34bd 037b f5bc
000001d0: a04b 2ebd b286 1fbd e271 073c 9488 1cbd
000001e0: b022 05be de30 a9bd fa8c a4bd 8639 c9ba
000001f0: e30c 4bbc d194 983a c36d 7abd 5881 35be
00000200: c793 7abd ddb2 643d b785 883d ea19 cdbd
00000210: 9c29 3ebe dc3b 11bd 7f25 c2bb a4d3 3a3d
00000220: 1c76 ff3c b030 86bc 74d2 463d ba32 bb3d
00000230: cd11 30bd d89b f23b dfc7 87bd d49f b4bd
00000240: 4c02 b33d 12aa b3bd d3b6 09be 68ab 85bd
00000250: cbf9 b13b f665 043c d9b9 eabd db65 f8bd
00000260: 86b9 76bd ef16 3ebc 8eaf d93d 7750 813d
00000270: b343 93bb bdf8 fbbd fe55 26bd 55de 513d
00000280: 92c0 99bd 6831 1a3e f6f6 e73d 7b12 c9bd
00000290: 72c0 e6bd 9ed9 60bc 57e2 343c 77fa 89bd
000002a0: 847b 5e3d 1ddc 9b3b 2736 67bd 0d2b fcba
000002b0: 09b6 3d3c 26e6 953d 8489 2bbe c4f8 8ebc
000002c0: 4677 0a3d dbd8 77bc f832 ec3b a21a c6bd
000002d0: 8612 4abc 4850 e53c 02a2 ffbb 1725 4b3d
000002e0: fb96 b2bd a072 4c3d f186 82bd d5e2 843d
000002f0: 5bf3 3b3c 9e0c 55bb f9f8 51bc 7156 8abd
00000300: f80e 633c f88e 4dbd b1fe 1a3d c5cb e73c
00000310: af66 3dbd f7c1 3a3c da9f 983d 8c69 87bd
00000320: 6443 30bc c6a9 d7bb 57d3 d1bc 3981 89bb
00000330: 6687 9b3c c8b9 283d 3604 dabc f764 ce3d
00000340: aa23 363d cbfc f43c 712a adbd 8e19 d63d
00000350: c4ca 0d3b 69b2 a2bc e6c3 483d 2fe7 98bd
00000360: 8c25 fabc 13f5 33bb 23be 8c3d 8158 5b3d
00000370: 3334 3f3d be5f e7bd 0b7f 503e b4ff afbd
00000380: cfdc 4d3e 2f84 39bd 3871 783c 9eb3 603d
00000390: d414 0dbd a1ec 8dbd a590 a9bc 568c c13c
000003a0: 5077 f33c f5ab 333c 0c40 62bd ab42 ddbd
000003b0: 4044 8c3d 2c98 cf3d 063d 923c ab24 b6bd
000003c0: 5b12 7fbd 3c57 20bd 9b40 723d 3dce 3fbd
000003d0: 5de8 5d3c 1e53 7e3d ce17 99bd 81fe 0d3e
000003e0: a503 80bc 5b3b 47be 2303 98bc 5f4b e6bd
000003f0: f6b8 9e3c 1b98 7b3c 2dce 7f3c ef03 ef3c

conv2.bias f4 [64]
-0.024022046 -0.015512538 0.011203388 0.063399844 -0.037033416 -0.05428628 0.04342367 0.04120446
0.042595718 0.0037098492 0.015399254 -0.03471664 -0.060126547 0.046769377 -0.012566645 0.013851424
0.00089627045 0.06828031 0.00880998 0.057496 0.0006531163 0.04165629 -0.05023598 0.040496033
0.047333054 -0.063438125 -0.0041171117 -0.06872445 -0.0335613 0.08379318 -0.053089164 -0.05071127
-0.007049465 -0.009350221 -0.051806655 0.02528194 0.0077401195 -0.05954707 0.0849861 0.010288734
0.02774124 0.018202076 -0.06921072 0.053613946 -0.07143376 -0.03329137 -0.0051152874 0.039713543
-0.017966127 -0.011680704 0.054699283 -0.020114837 0.04430357 -0.032381438 -0.029342296 0.07736771
0.015368412 -0.044718336 -0.06036195 0.06792804 0.061002333 0.0028661115 0.024457457 -0.034374002
00000000: e2c9 c4bc 4d28 7ebc 6a8e 373c c7d7 813d
00000010: 5ab0 17bd 4a5b 5ebd 05dd 313d 02c6 283d
00000020: d978 2e3d f120 733b 274d 7c3c 0933 0ebd
00000030: 4147 76bd 3f91 3f3d 54e4 4dbc 15f1 623c
00000040: b1f3 6a3a 8cd6 8b3d bc57 103c ed80 6b3d
00000050: e535 2b3a c99f 2a3d 3ec4 4dbd 2bdf 253d
00000060: 4ee0 413d d9eb 81bd d6e8 86bb 68bf 8cbd
00000070: 9377 09bd c29b ab3d 0674 59bd 9fb6 4fbd
00000080: 33ff e6bb ab31 19bc 3733 54bd 121c cf3c
00000090: d4a0 fd3b a1e7 73bd 310d ae3d 1492 283c
000000a0: 9941 e33c 851c 953c 5abe 8dbd 4c9a 5b3d
000000b0: dd4b 92bd 885c 08bd 249e a7bb abaa 223d
000000c0: b32d 93bc 6c60 3fbc 5b0c 603d dfc7 a4bc
000000d0: a977 353d 66a2 04bd 415f f0bc f672 9e3d
000000e0: cbcb 7b3c 932a 37bd 183e 77bd db1d 8b3d
000000f0: 95dd 793d 5fd5 3b3b 015b c83c c1cb 0cbd

bn2.weight f4 [64]
0.9834292 0.6489884 0.7549387 1.0422841 1.1112604 0.8584587 1.0189512 1.1837398
0.953238 1.1218083 1.0232284 0.77100605 0.9290934 1.0890812 0.86476016 0.7761285
0.82716525 0.91636276 0.9131943 1.0053408 1.1110519 0.8732797 1.0970109 1.223392
1.3706634 0.91804767 0.8054597 1.0770584 0.818175 0.9613946 1.103962 0.9355697
0.9292204 0.7930613 1.2191436 0.74097216 1.0194894 0.92275655 1.010593 1.0163119
1.1774479 0.8418322 1.1423562 0.96011436 0.8616057 0.93962735 1.0868064 0.99192846
1.0599756 0.99970233 0.8989221 0.9698764 0.89092433 0.84122354 0.9776121 0.8006623
0.87114614 0.77305186 0.94155544 0.8262085 1.1169049 0.82011837 0.7431328 1.2276149
00000000: 04c2 7b3f 1b24 263f aa43 413f 9169 853f
00000010: c83d 8e3f f3c3 5b3f fe6c 823f c984 973f
00000020: 6807 743f 6a97 8f3f 26f9 823f a760 453f
00000030: 11d9 6d3f 0367 8b3f ec60 5d3f 5bb0 463f
00000040: 1ac1 533f c096 6a3f 1ac7 693f 02af 803f
00000050: f336 8e3f 428f 5f3f da6a 8c3f 1c98 9c3f
00000060: e671 af3f 2c05 6b3f 9b32 4e3f 0ddd 893f
00000070: eb73 513f f51d 763f a04e 8d3f 7f81 6f3f
00000080: 63e1 6d3f 1106 4b3f e60c 9c3f 5ab0 3d3f
00000090: a17e 823f c639 6c3f 1d5b 813f 8216 823f
000000a0: 9db6 963f 5182 573f ba38 923f 0eca 753f
000000b0: 3192 5c3f 6b8b 703f 791c 8b3f 06ef 7d3f
000000c0: 48ad 873f 7eec 7f3f c21f 663f d249 783f
000000d0: 9e13 643f 6d5a 573f c944 7a3f 34f8 4c3f
000000e0: 6f03 5f3f bae6 453f c709 713f 6682 533f
000000f0: bdf6 8e3f 47f3 513f f43d 3e3f 7c22 9d3f

bn2.bias f4 [64]
0.38984573 -0.09856508 0.15193336 -0.1976696 -0.23425706 -0.22349653 -0.0030712239 -0.28089333
-0.2014696 -0.24964686 0.02389833 0.04140529 -0.1331793 0.011198336 -0.4172613 -0.055723947
-0.1918882 -0.30158827 -0.25806627 -0.006463409 -0.20988293 0.07938309 -0.34541976 -0.08771977
-0.031625025 -0.1493252 -0.28813827 -0.32296804 -0.03653546 -0.26691225 -0.424058 -0.12143811
-0.1933283 -0.33229187 -0.35602516 0.08620354 -0.017900161 0.12198849 0.013624196 -0.094115324
0.07863404 -0.31204396 -0.36072537 -0.42772636 -0.17295694 -0.033162106 -0.107039995 -0.032366134
-0.085119076 -0.10594352 -0.14227045 -0.1852324 -0.26879644 -0.24177784 -0.23169291 -0.23256074
-0.21548614 -0.20410976 -0.2585338 -0.2882131 0.022170447 -0.31871444 -0.17580107 -0.23437554
00000000: dc99 c73e 7ddc c9bd 6b94 1b3e e669 4abe
00000010: 15e1 6fbe 46dc 64be 9646 49bb 40d1 8fbe
00000020: 0c4e 4ebe 6da3 7fbe 6ec6 c33c 9898 293d
00000030: 2860 08be 3a79 373c 46a3 d5be cb3e 64bd
00000040: 577e 44be c769 9abe 4321 84be 01cb d3bb
00000050: 8deb 56be 9a93 a23d dcda b0be 6ca6 b3bd
00000060: 3e89 01bd b5e8 18be dc86 93be 115c a5be
00000070: 35a6 15bd b9a8 88be 211e d9be 8bb4 f8bd
00000080: dbf7 45be 2922 aabe ee48 b6be 7b8b b03d
00000090: 5ca3 92bc 1ad5 f93d 0538 5f3c 89bf c0bd
000000a0: e20a a13d 3ac4 9fbe ffb0 b8be f3fe dabe
000000b0: a01b 31be fdd4 07bd c937 dbbd 5a92 04bd
000000c0: e952 aebd ebf8 d8bd 58af 11be 90ad 3dbe
000000d0: b09f 89be 9c94 77be e840 6dbe 6724 6ebe
000000e0: 66a8 5cbe 2602 51be 8b5e 84be ab90 93be
000000f0: cc9e b53c 8a2e a3be 3205 34be 2400 70be

bn2.running_mean f4 [64]
-2.0291574 -0.340945 0.86243796 -0.3404758 -1.3237681 -0.5717559 -0.10173793 -1.1316413
-1.3723336 -1.0787137 -0.07979121 0.18625425 -1.1530563 -0.2589666 -0.83258367 0.014371365
1.8741705 -0.314123 -0.31173068 0.15190308 -0.47183856 -0.9027461 -0.7543069 -0.81591934
-0.10759332 -0.3004751 -0.415981 -1.9646161 -0.08880138 -0.6321372 -0.92827034 1.9345319
-1.115995 -0.7132697 -1.6638302 -0.7437475 -0.7914355 0.3177231 0.27091092 -0.060146347
-0.477497 -0.7133902 -3.2298188 -0.2898682 -0.38007033 -0.83694345 -0.6481407 -0.06820015
-0.95467156 -0.07684387 -0.080352366 -0.3078922 -0.33812764 -1.3017739 -2.033922 -0.48640954
-0.28523132 -0.73537046 -0.43080643 -0.50012845 0.2531011 -0.6546579 -0.23370646 -0.9157282
00000000: b7dd 01c0 5890 aebe bcc8 5c3f d852 aebe
00000010: 3c71 a9bf 985e 12bf fa5b d0bd 9fd9 90bf
00000020: a1a8 afbf 4a13 8abf 9369 a3bd 6fb9 3e3e
00000030: 5997 93bf 4597 84be 3424 55bf e075 6b3c
00000040: d2e4 ef3f bbd4 a0be 2a9b 9fbe 7b8c 1b3e
00000050: d394 f1be 5e1a 67bf 421a 41bf 17e0 50bf
00000060: e359 dcbd dfd7 99be 76fb d4be 8a78 fbbf
00000070: 7fdd b5bd bed3 21bf 20a3 6dbf be9e f73f
00000080: edd8 8ebf d898 36bf 63f8 d4bf 3c66 3ebf
00000090: 849b 4abf 9aac a23e d6b4 8a3e 045c 76bd
000000a0: 7d7a f4be bda0 36bf 5ab5 4ec0 9b69 94be
000000b0: 9498 c2be ed41 56bf 8dec 25bf 85ac 8bbd
000000c0: 5b65 74bf 5260 9dbd c88f a4bd 0ca4 9dbe
000000d0: 111f adbe 87a0 a6bf c72b 02c0 ac0a f9be
000000e0: d709 92be 3d41 3cbf a992 dcbe 6b08 00bf
000000f0: 7896 813e a997 27bf bf50 6fbe 2a6d 6abf

bn2.running_var f4 [64]
1.6728818 0.39268285 1.1643795 2.1481538 0.95065993 0.87488943 1.4451665 2.2733133
1.1435887 3.399189 1.4519033 1.0582027 2.0870314 1.4687502 2.6296897 0.72621405
1.6836433 0.9481232 0.966946 0.8191781 1.1642561 0.53699774 2.6441944 1.6928936
0.8768226 0.85191864 1.152347 3.3790684 0.8583726 1.5992972 1.928914 1.1244109
1.0927075 1.8473916 4.994826 0.8888965 0.5252397 0.53639877 1.0921744 1.5979582
0.39083874 1.4976305 11.390086 0.7300935 1.1159719 1.5116353 1.1190794 0.751758
0.4417524 0.24358536 1.1730905 1.2648464 1.1408216 2.543567 5.580908 0.79873866
0.8589543 0.47666228 1.3154536 1.699928 0.71419185 1.8461438 0.4176487 3.359496
00000000: fe20 d63f ba0d c93e 630a 953f 5a7b 0940
00000010: 735e 733f c1f8 5f3f 37fb b83f f77d 1140
00000020: 1d61 923f 508c 5940 f8d7 b93f 3073 873f
00000030: ec91 0540 0200 bc3f d64c 2840 2ae9 393f
00000040: a081 d73f 34b8 723f c689 773f a8b5 513f
00000050: 5806 953f af78 093f 7b3a 2940 bdb0 d83f
00000060: 7277 603f 5717 5a3f 1b80 933f a842 5840
00000070: 4fbe 5b3f c5b5 cc3f a7e6 f63f b2ec 8f3f
00000080: d7dd 8b3f 5477 ec3f 9dd5 9f40 b98e 633f
00000090: 1c76 063f 6e51 093f 5fcc 8b3f e589 cc3f
000000a0: 041c c83e 5bb2 bf3f cb3d 3641 68e7 3a3f
000000b0: 2bd8 8e3f 447d c13f fe3d 8f3f 3673 403f
000000c0: 5f2d e23e 716e 793e d427 963f 7de6 a13f
000000d0: 7106 923f cdc9 2240 cc96 b240 237a 4c3f
000000e0: 6ee4 5b3f 140d f43e c960 a83f 3e97 d93f
000000f0: 47d5 363f 714e ec3f 0dd6 d53e fc01 5740

conv3.weight f4 [128, 64, 3]
0.026871791 -0.086788565 0.080991544 -0.06653355 0.023910679 -0.063369855 0.0019581125 -0.044082515
-0.061009012 -0.018571272 0.07480786 -0.02719786 0.062383555 0.017165562 -0.016805438 0.05137689
-0.012832061 -0.020919355 -0.021142473 -0.047233645 -0.11284531 0.00975377 -0.22960961 -0.13197362
-0.04575247 0.06289293 -0.00940428 0.08084052 0.06150496 0.041159067 -0.06051586 0.053533595
0.004693734 -0.06986259 0.008602624 -0.04342211 0.082984045 0.035623576 0.01558181 0.08587304
0.009963696 -0.12405405 -0.04143836 0.07272695 0.00993884 -0.062600136 0.012831288 -0.04378084
-0.06579108 -0.070311256 0.0922686 0.011951347 -0.015745936 0.027157288 -0.010130039 -0.009472944
-0.049635068 0.11456534 -0.035898726 -0.03213996 0.059443068 0.034446757 0.015400014 0.04172778
-0.018086065 0.032386336 0.048241436 0.048531868 0.0032191451 -0.17001426 -0.18133733 0.0053568655
0.12978952 0.13426124 0.036234133 0.00069229404 0.003018931 0.021965537 -0.03997921 0.04022085
0.046312373 0.07011481 -0.015205895 0.04620519 -0.009915786 0.12362986 0.05268536 0.0047357287
0.07385282 -0.012572023 0.020480985 0.045977805 -0.20053722 0.20710635 -0.0049867053 -0.12115312
-0.06379908 0.041960962 0.0010436157 0.022140572 0.018333867 0.027752481 -0.057340167 -0.042611934
0.092183515 -0.1843999 -0.05172546 0.026836753 0.09789302 -0.051435377 -0.07448725 -0.08849658
-0.0349858 -0.09544572 0.00052694185 0.00079988 -0.00603621 -0.15618594 0.014456941 0.027400782
0.16067183 -0.011389833 0.025949694 -0.004988844 -0.0013678828 -0.027219968 0.008215456 -0.079090044
-0.087686 -0.18014649 0.05897852 -0.109413505 -0.0089366855 0.07653978 -0.027909236 0.1078335
0.11606103 -0.09355768 -0.13500227 -0.16925989 -0.03414248 0.17093499 -0.07734979 -0.061288815
0.089085676 -0.1541713 0.011939118 0.043196864 -0.06803001 -0.15454084 -0.010194217 0.055020683
-0.029580867 -0.016175264 -0.035492107 -0.0055934195 -0.012475797 -0.00435331 -0.022954406 0.01712957
-0.013924339 -0.0012961699 -0.015973639 0.014354764 -0.097995184 0.008806981 -0.007361693 0.026016587
0.014565246 0.06088624 0.009188987 -0.015567648 -0.07520907 -0.025551852 0.02347517 -0.01546619
-0.044592828 -0.029579446 0.065960646 0.0605509 -0.046189126 0.11144104 0.024383824 0.029665295
0.042160723 0.010132074 -0.057566233 0.095424436 -0.012913525 -0.008396493 0.0659588 -0.003939811
0.06712353 -0.17352179 -0.02979639 0.048821356 0.020398136 -0.06450633 -0.018618127 -0.026265863
0.034362786 -0.1106083 0.08001762 0.027578186 0.061707783 0.050442718 -0.015415403 -5.6778696e-05
0.022105878 0.044510517 0.026453752 0.077322975 -0.0182331 0.04385463 0.1453945 -0.057067014
0.03289124 0.023762072 -0.05254668 -0.025273915 -0.11692573 0.041323293 -0.03564115 0.06819799
0.059853014 0.014416078 0.0064853565 0.06939045 0.0036276577 0.011134663 0.2161195 -0.04515586
0.055662796 0.054922633 -0.16352524 -0.012037375 -0.027602654 -0.00681245 0.06625587 0.008798855
-0.029377976 -0.005161205 -0.076355696 -0.048860233 -0.078084104 0.044840068 0.001763778 0.0047620935
0.0010184885 0.0739848 0.13392629 -0.033504087 0.031834804 -0.054570448 0.028855348 0.074902415
00000000: 3b22 dc3c 34be b1bd e5de a53d be42 88bd
00000010: 54e0 c33c 0ec8 81bd ad53 003b de8f 34bd
00000020: 96e4 79bd c822 98bc dd34 993d 0cce debc
00000030: e685 7f3d cb9e 8c3c 8fab 89bc 9370 523d
00000040: 913d 52bc 115f abbc fb32 adbc 1178 41bd
00000050: 711b e7bd 47ce 1f3c c81e 6bbe 1824 07be
00000060: f166 3bbd 02ce 803d 6914 1abc b78f a53d
00000070: a0ec 7b3d 6996 283d 7adf 77bd 0b46 5b3d
00000080: e5cd 993b 1e14 8fbd 05f2 0c3c 62db 31bd
00000090: 8af3 a93d 07ea 113d d94a 7f3c 34de af3d
000000a0: c53e 233c 0d10 febd 45bb 29bd def1 943d
000000b0: 84d6 223c 8034 80bd 533a 523c 8a53 33bd
000000c0: 79bd 86bd 59ff 8fbd 52f7 bc3d 95cf 433c
000000d0: 9ffd 80bc f678 de3c 77f8 25bc 6834 1bbc
000000e0: 244e 4bbd 3ca1 ea3d 8b0a 13bd 31a5 03bd
000000f0: 937a 733d 0b18 0d3d 5750 7c3c c0ea 2a3d
00000100: 3a29 94bc 89a7 043d d098 453d 5ac9 463d
00000110: 4bf8 523b 3818 2ebe 7eb0 39be a588 af3b
00000120: 8be7 043e c77b 093e 3e6a 143d 117b 353a
00000130: 42d9 453b 12f1 b33c 3dc1 23bd 9ebe 243d
00000140: 0bb2 3d3d 5a98 8f3d 2522 79bc a741 3d3d
00000150: d275 22bc a731 fd3d 9bcc 573d 2c2e 9b3b
00000160: 2640 973d e3fa 4dbc bdc7 a73c 3953 3c3d
00000170: a159 4dbe b013 543e 8467 a3bb 211f f8bd
00000180: 18a9 82bd 42df 2b3d efc9 883a 2560 b53c
00000190: e830 963c 2c59 e33c 86dd 6abd da89 2ebd
000001a0: b6ca bc3d 54d3 3cbe 13de 53bd c0d8 db3c
000001b0: 237c c83d e7ad 52bd c58c 98bd b23d b5bd
000001c0: 454d 0fbd 0c79 c3bd 7822 0a3a 0aaf 513a
000001d0: 66cb c5bb 35ef 1fbe cedc 6c3c 9b77 e03c
000001e0: 2887 243e 6c9c 3abc 7494 d43c 7579 a3bb
000001f0: 884a b3ba 69fc debc 1f9a 063c f6f9 a1bd
00000200: b894 b3bd 5278 38be 7693 713d 3014 e0bd
00000210: 2d6b 12bc e3c0 9c3d e9a1 e4bc cfd7 dc3d
00000220: 68b1 ed3d 2b9b bfbd 093e 0abe 7752 2dbe
00000230: fcd8 0bbd 9509 2f3e 9169 9ebd fb09 7bbd
00000240: 8d72 b63d 15df 1dbe 4a9c 433c 32ef 303d
00000250: 5153 8bbd f43f 1ebe a505 27bc 5e5d 613d
00000260: 9353 f2bc fd81 84bc 2c60 11bd 0149 b7bb
00000270: 4967 4cbc 36a6 8ebb e10a bcbc 5053 8c3c
00000280: e922 64bc 3fe4 a9ba 26db 82bc 3e30 6b3c
00000290: b3b1 c8bd 284b 103c 5b3a f1bb bd20 d53c
000002a0: 12a3 6e3c da63 793d 688d 163c 730f 7fbc
000002b0: 3707 9abd 1e52 d1bc 004f c03c e765 7dbc
000002c0: f8a6 36bd 9850 f2bc 6016 873d 3804 783d
000002d0: cf30 3dbd 333b e43d 96c0 c73c a204 f33c
000002e0: b9b0 2c3d 0001 263c 92ca 6bbd e36d c33d
000002f0: 4093 53bc 7291 09bc 6815 873d 8819 81bb
00000300: 1078 893d b2af 31be 8f17 f4bc e7f8 473d
00000310: fe19 a73c e51b 84bd 0b85 98bc 822b d7bc
00000320: febf 0c3d 9b86 e2bd 47e0 a33d a6eb e13c
00000330: 4dc1 7c3d 069d 4e3d e390 7cbc a925 6eb8
00000340: 6317 b53c a950 363d 8ab5 d83c 825b 9e3d
00000350: 955d 95bc eaa0 333d 4ce2 143e 1abf 69bd
00000360: f7b8 063d ada8 c23c 303b 57bd 3e0b cfbc
00000370: c276 efbd 9d42 293d 74fc 11bd 63ab 8b3d
00000380: 6f28 753d 6a31 6c3c 1d83 d43b 951c 8e3d
00000390: ffbd 6d3b 296e 363c 6e4e 5d3e 5af5 38bd
000003a0: acfe 633d 8ef6 603d 2973 27be 6938 45bc
000003b0: f61e e2bc f93a dfbb 28b1 873d 1329 103c
000003c0: 15aa f0bc 531f a9bb 6060 9cbd ab21 48bd
000003d0: 8fea 9fbd 38aa 373d 922e e73a 560b 9c3b
000003e0: ce7e 853a 5885 973d f923 093e 953b 09bd
000003f0: 3665 023d 4385 5fbd 0d62 ec3c 7066 993d

conv3.bias f4 [128]
0.04620859 -0.06265914 -0.03369293 0.028780315 -0.014375363 -0.013325554 0.059270415 0.029406406
-0.022519581 0.028110817 -0.035616297 0.025766632 0.007135139 0.05379573 -0.06749309 -0.005683752
-0.073348984 -0.036197353 -0.066979446 -0.06672502 -0.045725457 -0.050654262 -0.030302918 0.06449861
-0.055346508 0.027778784 -0.018558254 0.0012449437 0.049026035 0.06148009 -0.053404965 -0.06635733
0.07393549 2.4832876e-05 0.02223657 -0.05046869 0.06946704 -0.01701111 0.007682336 -0.03601639
0.013021075 -0.047068972 -0.019563677 0.06608055 0.058779776 0.014030048 -0.04867629 0.058398638
-0.05691408 0.024678284 0.06861212 0.049973916 0.031099148 -0.030621454 0.048541717 -0.029570928
0.06818073 0.04058693 -0.032202445 -0.002872896 -0.02615759 0.0534567 0.011793744 0.039331988
0.051410466 -0.07917837 0.053907916 0.05976142 0.0062475144 0.028730359 -0.06903373 -0.07160477
0.021931794 -0.057781108 -0.02109587 -0.07590981 0.023944806 0.06356164 -0.047636826 -0.052652836
-0.014514665 -0.066117354 0.0037585706 -0.010683198 0.04344951 -0.055466015 -0.013379436 0.031986155
-0.0006511124 -0.048269123 -0.055077396 0.05171901 0.0421274 -0.037940957 0.081651546 -0.06760222
0.0074185324 0.06356755 -0.0310906 0.07443874 0.06690476 0.07603299 -0.040397946 0.06271207
-0.059506495 -0.053063773 -0.06596899 0.012458831 0.009787443 0.05263087 -0.0039091003 -0.059084047
-0.008324816 0.02277324 0.024187848 -0.043599695 0.040518526 0.008612684 0.032662217 0.0048007197
0.06196469 -0.03069749 -0.037431363 -0.02679163 0.055822734 0.06555554 0.03494579 0.04921571
00000000: 3845 3d3d 6f53 80bd 9901 0abd b2c4 eb3c
00000010: a486 6bbc 6d53 5abc 89c5 723d b4e5 f03c
00000020: fc7a b8bc a848 e63c 65e2 11bd 8b14 d33c
00000030: e2cd e93b e958 5c3d d139 8abd c43e babb
00000040: fe37 96bd ad43 14bd 852c 89bd 21a7 88bd
00000050: 9e4a 3bbd d87a 4fbd d33d f8bc d917 843d
00000060: 05b3 62bd 5590 e33c 7b07 98bc 612d a33a
00000070: 86cf 483d 8cd2 7b3d 2abf 5abd 5ae6 87bd
00000080: 7d6b 973d 3250 d037 7829 b63c 42b8 4ebd
00000090: bc44 8e3d e25a 8bbc 1bbc fb3b ec85 13bd
000000a0: 5956 553c 65cb 40bd 0144 a0bc 3d55 873d
000000b0: 10c3 703d 49de 653c ca60 47bd 6933 6f3d
000000c0: bd1e 69bd 1d2a ca3c 8384 8c3d 73b1 4c3d
000000d0: a4c3 fe3c d8d9 fabc aed3 463d bb3e f2bc
000000e0: 57a2 8b3d 7b3e 263d b6e6 03bd 3247 3cbb
000000f0: 7148 d6bc 6af5 5a3d 8c3a 413c 941a 213d
00000100: c893 523d 4528 a2bd 8cce 5c3d 64c8 743d
00000110: f3b7 cc3b ee5b eb3c 8e61 8dbd 86a5 92bd
00000120: 4eaa b33c e2ab 6cbd 3fd1 acbc 9a76 9bbd
00000130: e627 c43c 9b2c 823d d51e 43bd 80aa 57bd
00000140: ebce 6dbc 8968 87bd 5a52 763b 9508 2fbc
00000150: 1df8 313d 5530 63bd 6c35 5bbc ea03 033d
00000160: 6aaf 2aba d8b5 45bd d698 61bd 50d7 533d
00000170: c88d 2c3d fa67 1bbd ed38 a73d 0873 8abd
00000180: 2917 f33b b42f 823d b7b1 febc 5773 983d
00000190: 5d05 893d 2fb7 9b3d 5178 25bd 306f 803d
000001a0: 15bd 73bd 6659 59bd c01a 87bd 2020 4c3c
000001b0: 835b 203c 7893 573d e917 80bb 1d02 72bd
000001c0: cf64 08bc f28e ba3c 9825 c63c 9895 32bd
000001d0: c1f6 253d 371c 0d3c d1c8 053d 5b4f 9d3b
000001e0: b0ce 7d3d 4d79 fbbc a151 19bd 1f7a dbbc
000001f0: 61a6 643d fc41 863d 5123 0f3d 6a96 493d

bn3.weight f4 [128]
1.0453049 0.9709039 1.1342756 1.0566146 0.99101037 0.9135443 0.98946625 1.0212206
1.0351614 1.0431118 1.0523268 0.9861297 0.9128374 1.0174898 1.0621418 1.0477402
1.0693884 1.0215061 0.9720878 1.0844716 1.0590068 1.0452728 1.0389725 1.033507
1.027939 0.9952502 0.9626766 1.024037 0.9704577 0.9778089 0.9266361 0.9695251
0.99588835 0.9930197 1.0003483 1.0731474 0.98577327 0.9474513 0.9861531 1.0440576
1.016698 1.0998608 1.0163616 1.0510076 0.9684679 1.0907964 1.0135844 1.0290978
1.0506207 0.99390936 0.9446496 1.0024441 0.9674584 0.9626111 0.9836128 1.0140421
1.0399007 0.9791703 0.9205832 1.0237634 1.052019 0.998159 1.1057904 0.9292751
0.9963105 0.9703332 0.9589171 1.0583158 0.9598878 1.0445359 0.9533785 0.967153
0.8820194 1.0217716 0.98711544 0.9863759 1.0329201 1.0486104 0.9578329 1.0818125
0.9775312 0.9641298 0.96056926 1.0488453 1.0020683 1.0666802 1.0086762 0.9994944
0.91027147 1.0248287 0.9751199 0.91693014 0.94529516 0.9031227 0.9308282 1.0741076
1.0600953 0.9436159 1.0197185 1.0758293 1.0065575 0.99818814 0.9716729 1.0463643
1.0216768 1.066291 0.93870896 0.97603494 0.92099947 1.0444491 0.99806046 0.99712217
1.0497462 0.9593556 0.9245209 1.0188955 1.0404652 0.9751743 1.0826658 1.0426707
0.97398305 0.92853135 0.98120487 0.99352735 1.0658312 1.0133808 1.0079547 0.9408786
00000000: 8dcc 853f 288d 783f f12f 913f 263f 873f
00000010: dbb2 7d3f 0ade 693f a94d 7d3f 5bb7 823f
00000020: 2b80 843f b084 853f a5b2 863f ff72 7c3f
00000030: b6af 693f 1b3d 823f 43f4 873f 5a1c 863f
00000040: b8e1 883f b6c0 823f bfda 783f f7cf 8a3f
00000050: 898d 873f 80cb 853f 0dfd 843f f549 843f
00000060: 8193 833f b8c8 7e3f f971 763f a513 833f
00000070: ea6f 783f af51 7a3f 0638 6d3f cc32 783f
00000080: 8af2 7e3f 8a36 7e3f 6a0b 803f e55c 893f
00000090: a35b 7c3f 2b8c 723f 8874 7c3f aea3 853f
000000a0: 2923 823f 3dc8 8c3f 2318 823f 6b87 863f
000000b0: 83ed 773f 379f 8b3f 22bd 813f 7ab9 833f
000000c0: bd7a 863f d870 7e3f 8ed4 713f 1750 803f
000000d0: 5bab 773f ae6d 763f 0cce 7b3f 22cc 813f
000000e0: 771b 853f e8aa 7a3f 57ab 6b3f ae0a 833f
000000f0: 8fa8 863f 5987 7f3f 8a8a 8d3f f9e4 6d3f
00000100: 340e 7f3f c267 783f 977b 753f e476 873f
00000110: 35bb 753f 5ab3 853f 9d10 743f 5797 773f
00000120: 06cc 613f 69c9 823f 99b3 7c3f 2283 7c3f
00000130: ba36 843f de38 863f 8934 753f d578 8a3f
00000140: 7c3f 7a3f 36d1 763f dee7 753f 9040 863f
00000150: c643 803f fa88 883f 4d1c 813f ddde 7f3f
00000160: 8d07 693f 962d 833f 75a1 793f efbb 6a3f
00000170: ddfe 713f 0d33 673f c24a 6e3f 5c7c 893f
00000180: 34b1 873f d090 713f 2386 823f c6b4 893f
00000190: e0d6 803f 4289 7f3f 8ebf 783f 44ef 853f
000001a0: 4ec6 823f 397c 883f 3b4f 703f 6ddd 793f
000001b0: 9fc6 6b3f 82b0 853f e480 7f3f 6643 7f3f
000001c0: 155e 863f 5498 753f 67ad 6c3f 2b6b 823f
000001d0: f72d 853f 06a5 793f cb94 8a3f 3c76 853f
000001e0: f456 793f 3bb4 6d3f 3e30 7b3f cf57 7e3f
000001f0: 286d 883f 76b6 813f a904 813f 6cdd 703f

bn3.bias f4 [128]
-0.118598625 -0.1532264 -0.2005119 -0.20392853 -0.042348973 -0.108599 -0.07288827 -0.24793597
-0.28162262 -0.10871398 -0.062083106 -0.14438578 -0.075903594 -0.25189802 -0.04455307 -0.08627389
-0.16928859 -0.17948283 -0.10221382 -0.21615991 -0.16320401 -0.03763115 -0.03774671 -0.2106896
-0.27497506 -0.19214806 -0.1355178 -0.053179074 -0.037308864 -0.26584104 -0.07627347 -0.22302598
-0.17580378 -0.119101256 -0.116338074 -0.21311937 -0.15490507 -0.091907695 -0.09058685 -0.13549416
-0.16465458 -0.08301941 -0.2302782 -0.08864846 -0.10466742 -0.3614599 -0.090575226 -0.20691626
-0.14416167 -0.09032807 -0.025393646 -0.015369689 -0.10170627 -0.08573147 -0.16121419 -0.09081494
-0.120413505 -0.21155475 -0.103945486 -0.116665184 -0.14371274 -0.2719394 -0.10013356 -0.19505413
-0.255146 -0.20532776 -0.053526852 -0.038394548 -0.29412767 -0.22340402 -0.038473584 -0.07357431
-0.19249454 -0.07615891 -0.18188164 -0.17287381 -0.2605811 -0.10799742 -0.1570909 -0.11489007
-0.2258447 -0.18271182 -0.16954742 -0.11583034 -0.3951166 -0.23447947 -0.15173796 -0.18885943
-0.16864054 -0.16414459 -0.085442334 -0.17817108 -0.14261606 -0.079162404 -0.20802672 -0.18393509
-0.18050224 -0.15273517 -0.15091337 -0.07697726 -0.18409698 -0.43490672 -0.12487875 -0.023432996
-0.18298118 -0.10091767 -0.21757053 -0.17858474 -0.055778883 -0.14823346 0.064941004 -0.19193149
-0.20269442 -0.20311618 -0.17341144 -0.15638024 -0.29800493 -0.22678989 -0.14548503 -0.1776683
-0.1278893 -0.17999576 -0.09853373 -0.0903055 -0.15236309 -0.09299092 -0.024865473 -0.23396787
00000000: d6e3 f2bd 62e7 1cbe fe52 4dbe a4d2 50be
00000010: 1e76 2dbd 2769 debd 7246 95bd ede2 7dbe
00000020: d730 90be 6fa5 debd db4a 7ebd ded9 13be
00000030: 5873 9bbd c7f8 80be 487d 36bd 5eb0 b0bd
00000040: fd59 2dbe 59ca 37be 7b55 d1bd 0659 5dbe
00000050: f41e 27be 1f23 1abd 4b9c 1abd 04bf 57be
00000060: 88c9 8cbe 76c2 44be 2ec5 0abe 4dd2 59bd
00000070: 2ed1 18bd 511c 88be 4435 9cbd ec60 64be
00000080: e805 34be 5ceb f3bd a842 eebd f73b 5abe
00000090: 6f9f 1ebe 1a3a bcbd 9985 b9bd fbbe 0abe
000000a0: 369b 28be 1506 aabd 0cce 6bbe 538d b5bd
000000b0: df5b d6bd 4611 b9be 817f b9bd dbe1 53be
000000c0: 1e9f 13be ecfd b8bd 5606 d0bc 26d1 7bbc
000000d0: 604b d0bd fb93 afbd 5515 25be 2ffd b9bd
000000e0: 5b9b f6bd cfa1 58be 5fe1 d4bd 28ee eebd
000000f0: 6f29 13be a43b 8bbe d312 cdbd 45bc 47be
00000100: 7fa2 82be 7141 52be f93e 5bbd 9a43 1dbd
00000110: e797 96be 06c4 64be 7a96 1dbd 21ae 96bd
00000120: 4a1d 45be 34f9 9bbd 2e3f 3abe d505 31be
00000130: e36a 85be c02d ddbd 70dc 20be 7c4b ebbd
00000140: d543 67be cf18 3bbe d79d 2dbe 7538 edbd
00000150: b94c cabe 631b 70be 3261 1bbe 5e64 41be
00000160: 1bb0 2cbe 8515 28be 64fc aebd 7b72 36be
00000170: f209 12be e61f a2bd f504 55be 7b59 3cbe
00000180: 94d5 38be 9c66 1cbe 0989 1abe 41a6 9dbd
00000190: eb83 3cbe 18ac debe 6ec0 ffbd 8ef6 bfbc
000001a0: 6b5f 3bbe ecad cebd cfca 5ebe ebde 36be
000001b0: 6678 64bd 83ca 17be caff 843d b089 44be
000001c0: 208f 4fbe b0fd 4fbe c592 31be 2422 20be
000001d0: 1a94 98be 9c3b 68be 07fa 14be aeee 35be
000001e0: 6af5 02be cf50 38be 0dcc c9bd 17f2 b8bd
000001f0: 1205 1cbe 0672 bebd adb2 cbbc 4695 6fbe

bn3.running_mean f4 [128]
-0.3248994 0.09378238 0.26653117 -0.11258523 -0.587335 -0.5586641 -0.2972208 0.43225557
0.36289984 -0.45854917 -0.30117488 0.3826155 0.8261363 -0.77818894 -0.88848615 -0.111931846
-0.38074404 -0.28212655 -0.85602534 0.6666126 -0.83758646 -0.985249 -0.28930742 0.43484014
-0.05454404 0.2625498 1.0548329 0.23348142 -0.5176494 0.5476481 -0.6709934 -0.9507991
-0.394679 -1.4759365 -0.6238589 -1.3213356 -0.3588612 -0.2980274 -0.20942897 0.015891232
0.21444103 -1.7789469 -0.26449123 -1.0152738 -1.2890451 0.45435098 1.5200707 0.22064751
-0.2731344 -1.0157782 -1.0297984 -0.21793938 -0.2541299 -0.83536494 -1.1109704 -0.8894447
-0.25609726 0.13826178 0.52868885 -1.315272 -0.062272478 -0.15658884 -0.8969076 -0.21823806
-0.89809316 -0.5522893 -0.021086542 -0.73673326 0.51339465 -0.23120987 -0.56638235 -0.85157996
-0.4025385 -0.980992 -0.40539485 -0.06655113 -1.0612941 -0.76846606 -0.13895355 -0.032904338
-0.12665224 -0.3781337 -0.02786008 0.16850923 0.60857654 0.36036178 -0.20134585 0.4773108
1.3934929 -0.8139892 -1.5942949 -0.7652465 0.17600714 0.032183997 -1.1105216 -1.0328959
0.8295329 0.19612125 1.1435817 -0.19013457 0.7595449 0.21937025 -0.21725667 -0.9229612
-0.7101375 -1.1945447 -0.22364298 0.5622841 -0.86051524 -0.13579771 -0.7829858 -0.69495076
-0.3854808 1.0881925 0.005845212 -0.06986893 0.95667255 -0.9814166 -0.115251005 -0.3764005
0.11311094 -0.030072091 -0.98101234 -0.81409615 0.3526839 -0.83531445 -1.2474529 -0.30743665
00000000: 3759 a6be fa10 c03d c676 883e 1693 e6bd
00000010: 965b 16bf 9c04 0fbf 532d 98be 9a50 dd3e
00000020: 02ce b93e f5c6 eabe 9833 9abe 2ee6 c33e
00000030: ab7d 533f 6437 47bf d473 63bf 863c e5bd
00000040: e2f0 c2be e472 90be 7a24 5bbf 20a7 2a3f
00000050: 116c 56bf 4739 7cbf 1a20 94be 5ea3 de3e
00000060: 9269 5fbd ed6c 863e c404 873f c115 6f3e
00000070: ac84 04bf aa32 0c3f 39c6 2bbf 9267 73bf
00000080: 5e13 cabe 7deb bcbf 38b5 1fbf 8621 a9bf
00000090: a8bc b7be 0c97 98be 8c74 56be 542e 823c
000000a0: 6e96 5b3e 88b4 e3bf 656b 87be 7ef4 81bf
000000b0: 6eff a4bf b1a0 e83e ad91 c23f 6cf1 613e
000000c0: 46d8 8bbe 0505 82bf 6fd0 83bf 802b 5fbe
000000d0: 501d 82be 7ada 55bf 4734 8ebf a6b2 63bf
000000e0: 2e1f 83be 7f94 0d3e 2758 073f d55a a8bf
000000f0: 6d11 7fbd d358 20be bd9b 65bf cc79 5fbe
00000100: 6fe9 65bf d562 0dbf afbd acbc 8d9a 3cbf
00000110: d56d 033f 48c2 6cbe 6ffe 10bf 2501 5abf
00000120: 8719 cebe 4b22 7bbf ea8f cfbe f54b 88bd
00000130: 7cd8 87bf 31ba 44bf d749 0ebe b3c6 06bd
00000140: 20b1 01be be9a c1be d33a e4bc af8d 2c3e
00000150: accb 1b3f 5781 b83e 9b2d 4ebe 1562 f43e
00000160: fa5d b23f 9961 50bf db11 ccbf 32e7 43bf
00000170: 373b 343e 5ed3 033d 9225 8ebf ef35 84bf
00000180: 455c 543f 02d4 483e e360 923f a3b2 42be
00000190: 8971 423f 98a2 603e 8878 5ebe 2f47 6cbf
000001a0: 92cb 35bf d7e6 98bf aa02 65be daf1 0f3f
000001b0: ba4a 5cbf 8e0e 0bbe c271 48bf 4be8 31bf
000001c0: bd5d c5be e449 8b3f 3189 bf3b 7117 8fbd
000001d0: 7ee8 743f 1e3e 7bbf b808 ecbd 91b7 c0be
000001e0: b5a6 e73d bf59 f6bc a023 7bbf 9b68 50bf
000001f0: fc92 b43e 2bd7 55bf 89ac 9fbf 5668 9dbe

bn3.running_var f4 [128]
0.30278614 0.4457216 0.5360013 0.29997098 1.080375 0.40004665 0.28289473 0.2531201
0.23865947 0.3261218 0.3388722 0.36068246 0.3566593 0.578543 0.6308107 0.2497577
0.37036264 0.264637 0.50625616 0.47896856 0.6021686 0.96872705 0.27268773 0.29968825
0.36031154 0.3767626 0.28007656 0.2612641 0.5027767 0.42131492 0.5612868 0.41462496
0.36176682 0.69650906 0.27128118 0.899534 0.33764908 0.56402045 0.26624966 0.30415225
0.23057257 2.062278 0.28950948 0.40681425 0.47959512 0.34552485 0.752203 0.46217257
0.35807267 0.32631284 0.6778517 0.7185069 0.4167852 1.4739842 0.49956602 0.28057212
0.2978911 0.26615763 0.75366443 0.53416467 0.2178815 0.24024868 0.6216465 0.25712124
0.3993295 0.4693121 0.7538043 0.32107112 0.4282351 0.18508567 0.45767128 0.3979559
0.22747491 0.69549847 0.31955564 0.26972237 0.24361639 0.42269954 0.31624413 0.36566648
0.2537272 0.30468234 0.3975369 0.23296052 0.35936955 0.45068797 0.97511345 0.39445922
0.70310944 0.32754755 0.8329485 0.3748821 0.43710557 0.6821502 0.55194885 0.67831856
0.43480197 0.33411112 0.37450635 0.32225144 0.3436259 0.4386645 0.28442672 0.5716492
0.73012424 0.4029659 0.26613355 0.26480684 0.43105328 0.37228876 0.43430045 0.57817006
0.3936721 0.4265038 0.26748523 0.4164452 0.37019497 0.65935636 0.36344182 0.5716965
0.36681387 0.2779676 0.3269146 0.50950795 0.34542146 0.7108279 0.51752716 0.18311317
00000000: c906 9b3e 9f35 e43e 6237 093f cc95 993e
00000010: ba49 8a3f ead2 cc3e 94d7 903e f598 813e
00000020: 2663 743e 70f9 a63e a880 ad3e 5fab b83e
00000030: 0c9c b63e 651b 143f cf7c 213f 7cc0 7f3e
00000040: 2ca0 bd3e 807e 873e 019a 013f 5e3b f53e
00000050: b927 1a3f 7ffe 773f ba9d 8b3e bd70 993e
00000060: c17a b83e 07e7 c03e 3266 8f3e 68c4 853e
00000070: f9b5 003f 97b6 d73e 7eb0 0f3f b949 d43e
00000080: 8039 b93e 6b4e 323f 5ee5 8a3e dc47 663f
00000090: 57e0 ac3e a563 103f e051 883e d8b9 9b3e
000000a0: 371b 6c3e 5dfc 0340 963a 943e f549 d03e
000000b0: 7e8d f53e a2e8 b03e 6090 403f e2a1 ec3e
000000c0: 4d55 b73e 7a12 a73e b087 2d3f 11f0 373f
000000d0: df64 d53e 84ab bc3f 1ec7 ff3e 26a7 8f3e
000000e0: 2f85 983e d045 883e 27f0 403f 04bf 083f
000000f0: 541c 5f3e c003 763e 3a24 1f3f 65a5 833e
00000100: eb74 cc3e ad49 f03e 52f9 403f 6f63 a43e
00000110: a241 db3e 1987 3d3e e453 ea3e e0c0 cb3e
00000120: 2fef 683e 300c 323f cc9c a33e 0d19 8a3e
00000130: 9376 793e 136c d83e c0ea a13e a338 bb3e
00000140: 88e8 813e 53ff 9b3e f589 cb3e 348d 6e3e
00000150: 49ff b73e 93c0 e63e 09a1 793f 8ff6 c93e
00000160: fbfe 333f 50b4 a73e 1d3c 553f 8cf0 bf3e
00000170: 4dcc df3e 65a1 2e3f 854c 0d3f 49a6 2d3f
00000180: 5d9e de3e 9d10 ab3e 4cbf bf3e 24fe a43e
00000190: bcef af3e a298 e03e 61a0 913e 9a57 123f
000001a0: 6ce9 3a3f 8c51 ce3e a842 883e c394 873e
000001b0: 04b3 dc3e a29c be3e a15c de3e f402 143f
000001c0: 648f c93e b55e da3e d3f3 883e 4e38 d53e
000001d0: 328a bd3e 94cb 283f 0c15 ba3e b45a 123f
000001e0: 07cf bb3e c551 8e3e 5a61 a73e 1d6f 023f
000001f0: 15db b03e d1f8 353f a97c 043f 0582 3b3e
