models/multiclass_classifier.pth (torch, 46141 bytes, 6 tensors)

classifier.0.weight f4 [64, 128]
0	0xbe0c614c	-0.13708991
1	0x3e724cb6	0.23662075
2	0x3db4d5c8	0.08829838
3	0x3d5a64c4	0.053318754
4	0x3e0192be	0.12653634
5	0xbe4fba13	-0.20285825
6	0xbc54b912	-0.012983577
7	0xbe617696	-0.22017893
8	0x3e16b977	0.14719187
9	0xbea8af60	-0.329463
10	0xbc855df2	-0.016280148
11	0xbe12c8eb	-0.14334457
12	0xbda7e743	-0.081984065
13	0x3e8c2edf	0.2737951
14	0x3d6d3b07	0.05791762
15	0x3f05ef6c	0.52318454
16	0x3e8aab77	0.27083942
17	0xbdd457bb	-0.10368296
18	0xbe704942	-0.23465446
19	0x3ec3a54a	0.38212043
20	0x3cc7274c	0.02431073
21	0xbe8157bd	-0.25262251
22	0x3ced98d1	0.029003533
23	0x3e9d49c1	0.30720332
24	0x3f029b00	0.5101776
25	0x3e5c178f	0.21493362
26	0x3e8b4c73	0.27206764
27	0xbbce03e9	-0.006287087
28	0xbe799190	-0.24371934
29	0x3d37fe27	0.044920113
30	0x3d0c5ff6	0.034271203
31	0x3e23ba65	0.15989073
32	0x3de44078	0.11145109
33	0x3cf159d2	0.029461775
34	0x3e5865c6	0.21132573
35	0xbc3e8e36	-0.011630585
36	0x3eeb182f	0.45916888
37	0xbeb89676	-0.36052293
38	0x3cf0e274	0.029404856
39	0xbeb35c4b	-0.3503135
40	0xbe60c0ea	-0.21948591
41	0xbe240318	-0.16016805
42	0xbd8ca9bc	-0.06868312
43	0x3e949d30	0.29026175
44	0x3e1418a9	0.14462532
45	0xbe4dd750	-0.20101666
46	0x3e7e26d3	0.24819498
47	0xbd8ee4cc	-0.06977233
48	0x3e282f6c	0.1642434
49	0x3dea94d9	0.11454172
50	0x3e3b90f8	0.1831702
51	0x3e15a51a	0.14613762
52	0xbeb2fab3	-0.34956893
53	0xbca958fb	-0.020672312
54	0x3de2c608	0.11072928
55	0x3e2d4a2f	0.1692283
56	0x3df41de0	0.11919761
57	0xbe2068c7	-0.1566497
58	0x3cdb3579	0.026758896
59	0xbd6b819f	-0.057496663
60	0xbe8384b1	-0.25687173
61	0xbef4b137	-0.47791454
62	0x3e667110	0.22504067
63	0xbe0680f8	-0.13135135
64	0xbe52116e	-0.20514461
65	0xbda4ac1e	-0.08040641
66	0x3dc31e07	0.09527212
67	0x3d155cef	0.03646558
68	0x3d7f9b85	0.062404174
69	0xbf0c4a79	-0.54801136
70	0x3cac7bd7	0.021055145
71	0x3e458483	0.1928883
72	0xbde45b16	-0.11150186
73	0xbe1ee44a	-0.15516773
74	0x3e6280b9	0.22119416
75	0x3b0326fd	0.0020012252
76	0xbdaeb592	-0.085307255
77	0x3cf92e3f	0.03041756
78	0x3dfb96e3	0.12284639
79	0x3c35bb32	0.011091994
80	0x3e0d8e5a	0.13823834
81	0x3e16973f	0.14706133
82	0x3e1a5370	0.15070891
83	0x3dd93a3a	0.10606809
84	0x3ebddbd0	0.37081766
85	0xbf022970	-0.5084448
86	0xbdd0911a	-0.10183926
87	0x3e7634df	0.24043606
88	0xbe8dfedb	-0.27733502
89	0xbe32f01b	-0.17474405
90	0xbe597869	-0.21237339
91	0x3e2eb1e5	0.17060049
92	0x3d7124e7	0.058873083
93	0x3d244207	0.04010203
94	0x3e5df67d	0.21676059
95	0x3da2d5ff	0.07950973
96	0xbec6c239	-0.38820055
97	0xbd0c4c04	-0.03425218
98	0x3d9ecc46	0.07753806
99	0x3d07d991	0.033166472
100	0x3e476638	0.19472587
101	0xbe1edc9d	-0.15513845
102	0xbe7757ff	-0.24154662
103	0x3e9232a6	0.28554267
104	0xbe03d3ca	-0.1287376
105	0xbe84a3e4	-0.2590629
106	0xbf1e3956	-0.6180624
107	0xbe00a168	-0.12561572
108	0x3de52e73	0.111905
109	0x3e0de3df	0.13856457
110	0x3d338d59	0.04383597
111	0xbe6261d2	-0.22107628
112	0x3eaf8f38	0.34288955
113	0xbe0813da	-0.13288823
114	0x3e3ae5df	0.18251751
115	0x3cb30864	0.021854587
116	0xbe0de16d	-0.13855524
117	0xbedc723e	-0.4305591
118	0xbcdbe75b	-0.026843717
119	0xbdd56224	-0.104191095
120	0xbef01fb3	-0.46899185
121	0x3ea784eb	0.32718596
122	0xbee6d515	-0.45084444
123	0xbe41d7ad	-0.1892993
124	0xbe7da26c	-0.2476899
125	0xbeccb259	-0.39979818
126	0x3e9b09b8	0.30280852
127	0xbd8cbffd	-0.06872556
128	0xbe47f27e	-0.19526097
129	0x3e1be3fc	0.15223688
130	0x3e8d38b5	0.27582327
131	0xbdb64e5d	-0.08901665
132	0x3e352070	0.17688155
133	0xbf023f3a	-0.50877726
134	0x3e2b3cad	0.16722365
135	0x3da96f7a	0.082732156
136	0xbf160d19	-0.58613735
137	0xbdf6bcd9	-0.120477386
138	0xbe427d98	-0.18993223
139	0xbeac2ff7	-0.33630344
140	0xbedb3700	-0.428154
141	0xbce2e3cc	-0.027696513
142	0xbda6be36	-0.081417486
143	0x3e86fc61	0.26364425
144	0x3f57fd65	0.84371024
145	0x3f02abd5	0.51043445
146	0xbe589587	-0.2115079
147	0x3eb1e80d	0.34747353
148	0xbe14c668	-0.14528811
149	0xbdf1ec34	-0.1181263
150	0xbd028dab	-0.031873386
151	0x3e2988b5	0.16556056
152	0x3e7d44b2	0.24733236
153	0x3f4e6a59	0.80631024
154	0x3e160214	0.1464923
155	0xbe608643	-0.21926217
156	0x3df8a175	0.121401705
157	0x3e418c52	0.18901184
158	0x3dbb9b70	0.09160507
159	0x3e319e78	0.17345607
160	0xbebbb115	-0.3665854
161	0x3d519bcf	0.05117398
162	0xbe6d937a	-0.23200789
163	0xbee21570	-0.4415698
164	0x3e934650	0.28764582
165	0xbdca2af5	-0.09871475
166	0xbea3b7df	-0.3197622
167	0xbf31b200	-0.6941223
168	0x3db0f82f	0.08641087
169	0xbc5df353	-0.013546783
170	0x3e3fbd02	0.18724445
171	0x3e75b891	0.23996188
172	0x3e3395a9	0.1753756
173	0xbda11379	-0.07865042
174	0x3ec0a75b	0.37627682
175	0x3db49d39	0.0881905
176	0xbe4fbd54	-0.20287067
177	0x3d87f441	0.066383846
178	0xbe8256dd	-0.25456896
179	0x3da423d0	0.08014643
180	0xbeadaf96	-0.33923024
181	0xbd9908de	-0.074723944
182	0xbedbba7e	-0.4291572
183	0xbe9bd061	-0.30432418
184	0x3f07a4f7	0.5298609
185	0xbec2ae07	-0.38023397
186	0x3e0a9bb2	0.13535956
187	0xbe02ca6b	-0.12772529
188	0xbed69aae	-0.41914886
189	0xbef9c827	-0.48785517
190	0x3db77590	0.0895797
191	0xbe1f649f	-0.15565728
192	0x3e94380b	0.28949007
193	0xbe60e87f	-0.2196369
194	0xbd9eeb4a	-0.077597216
195	0xbd4f12a1	-0.050554875
196	0x3e1f9b01	0.15586473
197	0x3dffc33e	0.12488411
198	0x3cab5a00	0.020916939
199	0x3e757d4d	0.2397358
200	0xbeb9e3da	-0.3630665
201	0xbe0f8960	-0.14017248
202	0xbea03500	-0.31290436
203	0xbdddd8d2	-0.10832371
204	0x3e929233	0.28627166
205	0x3e690743	0.22756676
206	0x3c93ad29	0.018026905
207	0x3de0188e	0.109421834
208	0x3efc4911	0.49274495
209	0xbee1630d	-0.44020882
210	0x3e015c5d	0.1263289
211	0x3db55323	0.08853748
212	0x3d2bfb20	0.04198754
213	0xbebc057d	-0.36722937
214	0xbbb01d67	-0.005374599
215	0xbf0f08e7	-0.5587296
216	0xbe12802e	-0.14306709
217	0xbec0953b	-0.37613854
218	0xbd0ede6c	-0.034880087
219	0xbc26f04a	-0.010189125
220	0x3f1710c8	0.5900998
221	0x3df662af	0.12030541
222	0x3ed79f69	0.42113808
223	0x3e0b8a78	0.1362704
224	0xbeb32c4e	-0.3499474
225	0xbceb222c	-0.028702818
226	0x3d75d610	0.0600186
227	0xbc8fa854	-0.01753632
228	0x3cc2ccf9	0.02377938
229	0x3ea1da9b	0.31612095
230	0x3d295491	0.041340414
231	0x3f2594c5	0.6468013
232	0x3e221024	0.1582647
233	0xbdfe703f	-0.12423753
234	0xbf2d5e75	-0.67722255
235	0xbeb14d6f	-0.3462939
236	0x3dc02b5b	0.093832694
237	0x3d65863d	0.056036223
238	0xbe465ee0	-0.1937213
239	0x3dd9f9cf	0.1064335
240	0x3e2295bf	0.15877436
241	0xbd0d3ffb	-0.034484845
242	0x3e66da96	0.22544321
243	0xbe163614	-0.14669067
244	0x3dbef473	0.09323969
245	0xbe633912	-0.2218974
246	0xbea5b35f	-0.32363412
247	0xbd6c1cff	-0.05764484
248	0xbe9db452	-0.30801636
249	0xbdd37bb3	-0.10326328
250	0xbd708ec8	-0.058729917
251	0xbe8ac556	-0.2710368
252	0xbe80f7d9	-0.25189093
253	0xbedb9660	-0.42888165
254	0x3e4c0526	0.19923839
255	0x3ec9260f	0.3928685

classifier.0.bias f4 [64]
0	0x3ddc7b47	0.10765701
1	0xbdc423d6	-0.09577148
2	0x3be702cc	0.007049894
3	0x3d4d1a0d	0.050073672
4	0xbe269085	-0.16266067
5	0x3b191f6a	0.0023364672
6	0xbe3de173	-0.18543033
7	0x3daf1c43	0.08550312
8	0x3da964c0	0.0827117
9	0xbd952ba5	-0.07283715
10	0xbd884261	-0.06653286
11	0xbdae1a4a	-0.08501108
12	0x3d2fafd0	0.042892277
13	0x3e2f3722	0.17110875
14	0xbdd40285	-0.10352043
15	0xbddafa86	-0.10692315
16	0x3d05e8ff	0.032692906
17	0xbddd1d35	-0.107965864
18	0x3c2fef04	0.010738138
19	0xbc8a9a07	-0.01691915
20	0x3c4d5758	0.012533031
21	0x3cd11d4f	0.02552667
22	0xbe75d59e	-0.2400727
23	0xba600841	-0.0008546152
24	0xbd8dc36e	-0.06922041
25	0xbd6d2a6c	-0.057901785
26	0xbd32a436	-0.043613635
27	0x3d9571fa	0.0729713
28	0xbe5777ab	-0.21041743
29	0xbd082d84	-0.033246532
30	0xbdad7bf5	-0.084709086
31	0xbdddcc8a	-0.10830028
32	0xbdaa7011	-0.08322156
33	0xbd8b93d4	-0.06815305
34	0xbc90cc1c	-0.017675452
35	0x3d8a60c4	0.06756738
36	0xbe0f970f	-0.14022468
37	0xbd878f0d	-0.06619082
38	0x3e3f51ca	0.18683544
39	0xbdcfc17c	-0.10144326
40	0xbda14d91	-0.07876123
41	0xbd756e9e	-0.059919946
42	0x3cd02d25	0.025412152
43	0xbdb8a858	-0.09016484
44	0xbcc15677	-0.0236008
45	0xbdd60d65	-0.104517736
46	0x3dfd1e3a	0.12359281
47	0x3cc7703c	0.02434551
48	0xbd6d1228	-0.057878643
49	0x3ca66b64	0.02031488
50	0xbe52d759	-0.20589961
51	0xbdf8237b	-0.12116142
52	0x3d791372	0.06080956
53	0xbd83202d	-0.064026214
54	0xbdaa20dd	-0.083070494
55	0x3d411d2c	0.04714696
56	0x3d00f6fc	0.031485543
57	0x3d1aeacc	0.037821576
58	0x3dbc1a3c	0.09184691
59	0xba3eb516	-0.0007274909
60	0xbe1588c4	-0.14602953
61	0x3d0d218a	0.034455813
62	0x3b1fc489	0.0024378619
63	0x3d2b4fb5	0.04182406

classifier.3.weight f4 [32, 64]
0	0xbdb27287	-0.087132506
1	0x3fee7cf5	1.8631884
2	0x3d90a3a9	0.07062466
3	0xbf744274	-0.954139
4	0xbe2fb6dd	-0.171596
5	0x3f3fd113	0.74928397
6	0x3b3d3fa0	0.0028877035
7	0x3f20f820	0.6287861
8	0x3f3327f4	0.6998284
9	0xbddae073	-0.106873415
10	0xbd34cf58	-0.04414305
11	0xbd5c08f2	-0.05371947
12	0xbd3fc3b2	-0.04681749
13	0x3f01a5e2	0.5064374
14	0xbedb6c65	-0.42856136
15	0xbc6e51b8	-0.01454585
16	0x3f8b2869	1.0871707
17	0x3e529d31	0.20567776
18	0x3f08ce34	0.5343964
19	0x3d6aff63	0.057372462
20	0x3fa1c148	1.263711
21	0xbf7f1e13	-0.99655265
22	0xc007773a	-2.116652
23	0x3e328a1e	0.174355
24	0xbe18f452	-0.14936951
25	0x3e4b3e1f	0.19847916
26	0x3eece1dc	0.46266067
27	0x3d1186b0	0.03552884
28	0xbe58679c	-0.21133274
29	0xbe6cb8b2	-0.2311733
30	0x3fb3c71d	1.404514
31	0x3c0b6073	0.008506882
32	0x3dc490eb	0.095979534
33	0xbdf7c08d	-0.12097273
34	0xbda6698c	-0.081256
35	0x3ea91a88	0.33028054
36	0xbc5961cd	-0.013267946
37	0xbe399692	-0.18123844
38	0x3da040fa	0.07824893
39	0x3d30388a	0.04302267
40	0xbe8f70bf	-0.28015706
41	0xbd1631ba	-0.036668517
42	0xbf1bdc8e	-0.60883415
43	0xbfa34b93	-1.2757438
44	0x3e1b0aa9	0.15140785
45	0xbe9a3d44	-0.30124867
46	0x3f16ffb6	0.58983934
47	0x3dc9022d	0.09814868
48	0xbed41538	-0.4142244
49	0x3d962a2e	0.07332264
50	0xbf5bbe68	-0.8583741
51	0xbde9821d	-0.1140177
52	0x3f65b553	0.89729804
53	0x3e16992d	0.1470687
54	0xbd7c03b5	-0.061526973
55	0xbd6531c8	-0.05595568
56	0xbed9a151	-0.42505887
57	0xbe0026df	-0.12514828
58	0xbe9ad29e	-0.30238813
59	0xbdbcbc6e	-0.092156276
60	0xbed1f955	-0.41010538
61	0x3e13e1cc	0.14441603
62	0xbd346ea0	-0.044050813
63	0x3ea95198	0.33070064
64	0xbe734ebe	-0.23760507
65	0xbfd96425	-1.6983687
66	0xbd81cdc1	-0.063380726
67	0x3e85fac9	0.26167896
68	0x3f24ab43	0.64323825
69	0xbd99b16c	-0.07504544
70	0x3db313ae	0.08743988
71	0x3d631db7	0.05544826
72	0xbf623055	-0.88355
73	0xbf2826ca	-0.6568419
74	0xbdcb963d	-0.09940765
75	0x3d311054	0.043228462
76	0x3dc19f5e	0.09454225
77	0xbfaeecea	-1.366605
78	0xbd4436f7	-0.04790398
79	0x3f46a1ba	0.77590525
80	0xbfc9519c	-1.572803
81	0xbe48e149	-0.1961719
82	0xbe5550b6	-0.2083157
83	0x3ca79356	0.020455997
84	0xbe37579b	-0.17904513
85	0xbd058ab8	-0.032602996
86	0x3c93eef9	0.018058287
87	0x3fac48fe	1.3459775
88	0x3e14f01f	0.14544724
89	0x3e47c84e	0.19510004
90	0x400791ec	2.1182814
91	0xbd27e1b1	-0.04098672
92	0x3e1f8787	0.15579043
93	0xbf6841fe	-0.90725696
94	0xbdd9b722	-0.10630633
95	0x3e2e604d	0.17028923
96	0x3d5868e1	0.052834395
97	0x3ea39c23	0.3195506
98	0x3ebd037a	0.36916715
99	0xbf824e9f	-1.0180243
100	0x3f68efc3	0.9099085
101	0xbf31d0dd	-0.69459325
102	0xbd318fc0	-0.04334998
103	0xbed36134	-0.41285098
104	0xbed5a7aa	-0.4172948
105	0x3f5204bd	0.8203848
106	0xbfa8a4b4	-1.3175263
107	0xbda7253c	-0.08161399
108	0x3eaa17d2	0.33221298
109	0x3f2a51bd	0.6653097
110	0xbe357c7d	-0.1772327
111	0x3d2c78fb	0.042107563
112	0x3c999b23	0.018750733
113	0xbee8246d	-0.4534029
114	0x3f697506	0.9119419
115	0x3f86d033	1.0532287
116	0xbfbc6dab	-1.4720968
117	0xbe989f1c	-0.2980889
118	0x3eb87942	0.36030012
119	0xbea4965d	-0.32145968
120	0xbf5e09fc	-0.86733985
121	0xbf0f2f6f	-0.5593175
122	0x3e3e36b4	0.18575555
123	0x3d27de72	0.040983625
124	0xbf21a64e	-0.63144386
125	0xbe377573	-0.17915897
126	0x3db615ed	0.08890901
127	0xbf0eab8d	-0.55730516
128	0xbdacd48f	-0.0843898
129	0xbfd1ee9a	-1.640094
130	0xbf5e964c	-0.86948085
131	0xbf3a3fcc	-0.72753596
132	0x3e866157	0.2624614
133	0xbff49582	-1.9108126
134	0x3f3d5969	0.73964554
135	0xbe0f05ce	-0.13967058
136	0xbf8c62d5	-1.0967661
137	0x3ed9cb5e	0.4253797
138	0x3d7ba1b8	0.061433524
139	0xbe8a6d90	-0.27036715
140	0xbf2b757e	-0.66976154
141	0x3f025002	0.5090333
142	0xbf90529a	-1.1275208
143	0x3d9f21b3	0.077700995
144	0x3ec5a723	0.38604078
145	0x3ed4aaff	0.4153671
146	0xbe18a4bb	-0.1490659
147	0xbdb8237d	-0.08991144
148	0x3cdbbd37	0.026823623
149	0x3fb05730	1.3776608
150	0xbcbb8306	-0.022889625
151	0x3eea1bff	0.45724484
152	0x3cd1f683	0.025630241
153	0xbf3073e2	-0.68926823
154	0x3ec0eb3d	0.37679473
155	0xbf160447	-0.58600277
156	0x3f0c73bf	0.54864115
157	0xbfbdcd62	-1.4828303
158	0x3ed52876	0.41632432
159	0x3ef5df84	0.4802209
160	0xbc0ac882	-0.008470656
161	0xbf92a881	-1.1457673
162	0xbfabd6dc	-1.3424945
163	0x3a27acb6	0.00063962804
164	0xbec4cde0	-0.3843832
165	0x3dd81480	0.10550785
166	0xbf3ebf35	-0.7451051
167	0xbfbf678f	-1.4953479
168	0x3e0b1162	0.1358085
169	0x3e3289cb	0.17435376
170	0x3f54d59f	0.8313846
171	0xbf992916	-1.1965663
172	0x3f3100c9	0.69141823
173	0xbeae83b5	-0.3408486
174	0x3df8b7cd	0.12144432
175	0xbc8f6553	-0.01750437
176	0xbf630da0	-0.88692665
177	0xbf60688e	-0.8765954
178	0x3ece421d	0.40284815
179	0xbfdf3aba	-1.7439797
180	0x3ce1e1eb	0.027573546
181	0x3dee1a50	0.116261125
182	0xbfb2d2a1	-1.3970529
183	0x3de97256	0.11398761
184	0x3e868120	0.2627039
185	0x3e347ff8	0.17626941
186	0xbeec7e01	-0.46189883
187	0xbe05682e	-0.13028023
188	0x3d959a61	0.07304836
189	0xbe13bab0	-0.14426684
190	0xbcd6f400	-0.026239395
191	0xbe2320db	-0.15930502
192	0x3e95f66f	0.29289576
193	0xbeba098b	-0.36335406
194	0x3e82c3da	0.25540048
195	0xbf8ce28d	-1.1006638
196	0xbe8635e3	-0.26212987
197	0xbd83278a	-0.06404026
198	0xbedc3afa	-0.43013746
199	0x3ec862c7	0.3913786
200	0xbf604965	-0.8761199
201	0xbf35dc4e	-0.71039283
202	0x3f5d06b6	0.86338365
203	0xbc57d3ba	-0.013173038
204	0xbe92e579	-0.286907
205	0x3f21d58e	0.63216484
206	0xbe28cb93	-0.16483907
207	0x3d13a4be	0.036045782
208	0x3f8aea6b	1.0852789
209	0x3e941228	0.28920102
210	0xbe6e0813	-0.23245268
211	0xbe009045	-0.12555034
212	0xbed02436	-0.40652627
213	0xbdb0f2b7	-0.08640044
214	0xbe535123	-0.2063642
215	0xbe9d7845	-0.3075582
216	0x3dd03ad0	0.101674676
217	0x3f354bc4	0.70818734
218	0xbee0b2d9	-0.4388645
219	0x3c87c1a3	0.016571825
220	0x3f083be2	0.53216374
221	0xbf98d47b	-1.1939844
222	0xbe6ea5c2	-0.23305419
223	0x3f24c4d3	0.6436283
224	0xbd9b7d70	-0.07592285
225	0x3e41c795	0.18923791
226	0xbc18d291	-0.009327547
227	0xbe5220f0	-0.20520377
228	0xbe0e0e65	-0.13872679
229	0x3db32bf1	0.087486155
230	0xbeeeadba	-0.46616918
231	0xbf8fe081	-1.1240388
232	0x3d1d7592	0.038442202
233	0x3d1e221d	0.03860675
234	0xbfbb1b4d	-1.4617707
235	0x3e93189e	0.2872972
236	0x3f9fd66c	1.2487311
237	0xbe0cb602	-0.13741305
238	0x3f1ef8ae	0.62098205
239	0xbd5a4010	-0.05328375
240	0x3e57b690	0.21065736
241	0x3e0da449	0.13832201
242	0x3f24ae16	0.64328134
243	0x3d04a3f4	0.03238292
244	0xbd799c6a	-0.060940184
245	0x3fa0af9a	1.2553589
246	0x3b8c19ac	0.0042755213
247	0x3e9ff7dc	0.3124379
248	0xbf66519b	-0.8996827
249	0x3e216d79	0.15764417
250	0x3f0980c3	0.537121
251	0x3d5f11c4	0.054460302
252	0x3db90f36	0.090361044
253	0xbe60bf20	-0.21947908
254	0xbcdb0fc2	-0.026740912
255	0xbe8481d5	-0.25880304

classifier.3.bias f4 [32]
0	0x3e81b00f	0.25329635
1	0x3e804a0a	0.25056487
2	0x3d95f7bc	0.07322642
3	0x3d8c8460	0.06861186
4	0x3ccb0d2f	0.02478656
5	0x3d912529	0.07087166
6	0x3e6cbaed	0.23118182
7	0x3d0df3cd	0.034656335
8	0x3d510c7c	0.051037297
9	0x3e442d8f	0.19158004
10	0xbbf5a2af	-0.0074962
11	0x3dd070a8	0.101777375
12	0x3bea9126	0.0071584163
13	0xbe3b064f	-0.18264125
14	0x3d001596	0.031270586
15	0x3e0dc51c	0.13844723
16	0x3c13c213	0.009018439
17	0x3db38aca	0.08766706
18	0x3e0de5ae	0.13857147
19	0x3e215c5a	0.15757886
20	0x3db4a336	0.088201925
21	0x3db0b9aa	0.086291626
22	0x3db9c04b	0.0906988
23	0x3dc132f3	0.09433546
24	0xbc7f30e2	-0.015575619
25	0x3eb57faa	0.35448962
26	0x3e1857d9	0.14877261
27	0x3de98cbb	0.11403795
28	0x3e370bc9	0.1787559
29	0x3ddab115	0.10678307
30	0x3e2b1568	0.16707385
31	0x3e1207f9	0.14260854

classifier.6.weight f4 [11, 32]
0	0xbeb819ad	-0.3595709
1	0xbf4c5854	-0.7982228
2	0x3f2b5c0d	0.66937333
3	0x3d1e7f40	0.038695574
4	0xbe35e015	-0.17761262
5	0xbce09aea	-0.027417619
6	0xbefbd6f4	-0.49187434
7	0x3e89ba1f	0.26899812
8	0x3ebf2821	0.37335303
9	0x3efd9299	0.49525908
10	0x3dfa644e	0.12226163
11	0xbebd2e32	-0.36949307
12	0xbe65a422	-0.22425893
13	0x3f6b8630	0.9200163
14	0xbfa2edcf	-1.2728823
15	0x3e8998f7	0.26874515
16	0xbe0f1e0b	-0.13976304
17	0xbe71c3e1	-0.23609878
18	0xbf98363a	-1.1891549
19	0xbf8fa0aa	-1.1220906
20	0xbf32b63a	-0.69809306
21	0xbea6f3ad	-0.32607785
22	0xbd683a0c	-0.056695983
23	0x3f7e167f	0.99253076
24	0x3e080c07	0.13285838
25	0x3e072fc8	0.13201821
26	0x3f34dd43	0.7065012
27	0x3f3178af	0.69324774
28	0xbf45e8a0	-0.7730808
29	0xbf2d0398	-0.6758361
30	0xbf6211bd	-0.88308316
31	0x3eb6a0fe	0.35669702
32	0x3e397b44	0.18113428
33	0xbff6d709	-1.9284374
34	0xbf980c32	-1.1878722
35	0xbfa51707	-1.2897652
36	0x3eb46807	0.35235617
37	0xbf0d43d5	-0.5518163
38	0x3f0ea783	0.5572435
39	0x3e888df9	0.26670817
40	0xbe8621d3	-0.2619768
41	0x3e83b3f3	0.25723228
42	0xbf9a0fdf	-1.2036093
43	0x3e9b0628	0.30278134
44	0x3f1e35b7	0.6180071
45	0xbf1e2f20	-0.6179066
46	0x3e862b50	0.2620492
47	0xc028ce48	-2.6375904
48	0x3f864262	1.0489008
49	0xbe19b29d	-0.15009542
50	0xbf5b22c0	-0.855999
51	0x3e665491	0.22493197
52	0x3e9a8041	0.30175975
53	0xc002f3c8	-2.0461292
54	0xbf9ec07f	-1.2402495
55	0x3effcd7e	0.49961466
56	0x3f1ba9fa	0.6080624
57	0x3eaf7ed8	0.34276462
58	0xbfe28db2	-1.7699492
59	0xc0033920	-2.0503616
60	0xbf05dbd9	-0.52288586
61	0xbfc568f8	-1.5422659
62	0x3f030c75	0.5119088
63	0xbf1c9344	-0.6116221
64	0x3e8e8a05	0.27839676
65	0x3eb00ef4	0.34386408
66	0x3e8f8f98	0.2803924
67	0x3e641236	0.22272572
68	0xbfd019ff	-1.6257933
69	0xbe7440ec	-0.2385289
70	0xbf44c497	-0.7686247
71	0x3e95725f	0.2918882
72	0x3e025691	0.12728335
73	0x3e4aaac2	0.19791701
74	0xbcc1afa1	-0.023643317
75	0x3ebd544e	0.36978382
76	0xbfc7ed66	-1.5619323
77	0x3e781ab3	0.24228935
78	0xbf8aa3f0	-1.083128
79	0x3e007805	0.12545784
80	0xbfa485a3	-1.2853283
81	0xbfa0b305	-1.2554632
82	0x3ccd9bd2	0.025098715
83	0x3ea6bdf0	0.32566786
84	0xbf307d4c	-0.6894119
85	0xbff06cbc	-1.8783183
86	0xbef54007	-0.4790041
87	0xbff9c70c	-1.9513869
88	0xbedc5895	-0.43036333
89	0x3ebd6c36	0.3699662
90	0x3eaa5859	0.3327053
91	0xbf040b1c	-0.5157945
92	0x3f06a25c	0.5259149
93	0x3e371f34	0.17882997
94	0xbf87ad82	-1.0599825
95	0xbfd22bcb	-1.6419615
96	0xbf8e0b12	-1.1097128
97	0xbf9c7c62	-1.2225459
98	0x3f1dbd21	0.6161671
99	0xbfe27d19	-1.7694427
100	0x3ec7c03a	0.39013845
101	0xbfa78621	-1.3087808
102	0x3da78fdf	0.08181738
103	0xbda33710	-0.07969487
104	0x3e51189d	0.20419545
105	0xbc2d1108	-0.010563143
106	0xbfca60bd	-1.5810772
107	0xbebcf778	-0.36907554
108	0xbed2a4b2	-0.41141278
109	0xbf06370b	-0.5242774
110	0x3dab7b28	0.083730996
111	0xc0066c68	-2.1003666
112	0x3f35a216	0.7095045
113	0xbf428524	-0.75984406
114	0xc06a0925	-3.6568081
115	0xbfda8b9c	-1.7073855
116	0x3ec1796f	0.3778796
117	0xbfa62a29	-1.2981616
118	0x3ed28bf1	0.41122392
119	0x3f42033c	0.75786185
120	0xbf90c212	-1.1309226
121	0xbe2e73f5	-0.17036422
122	0xbf074c6f	-0.52851003
123	0x3f39fe7b	0.7265393
124	0xc03acbfe	-2.9187007
125	0xbfef52f5	-1.8697191
126	0x3e1bdeb5	0.15221675
127	0xbf561946	-0.83632314
128	0x3dccc6c6	0.099988505
129	0xbf9dfd1d	-1.2342869
130	0xbf03494f	-0.51283735
131	0x3e289aad	0.16465254
132	0x3e51a83c	0.20474333
133	0x3e9b5a53	0.3034235
134	0x3eaa2177	0.33228657
135	0xbca8718c	-0.020561956
136	0xbd3a094d	-0.045419026
137	0x3e016f86	0.12640199
138	0x3efcb636	0.49357766
139	0xbfc19093	-1.5122246
140	0x3ea3cb2b	0.31990942
141	0x3efcfb20	0.49410343
142	0xbfbd8246	-1.4805381
143	0x3d32ae0c	0.043623015
144	0xbf95115c	-1.1645923
145	0xc01f5933	-2.4898193
146	0xbfffb75d	-1.9977833
147	0xbe7194f8	-0.23591983
148	0x3db3be4e	0.08776532
149	0xbfeb9b67	-1.84068
150	0x3e43f4b0	0.1913631
151	0x3cfaed4f	0.030630736
152	0x3ed14912	0.4087606
153	0x3ea47641	0.3212147
154	0x3efd29b4	0.4944588
155	0x3ef053fa	0.4693907
156	0x3e5485bc	0.2075414
157	0xbfa1cc0d	-1.2640396
158	0x3cb6b256	0.022301834
159	0x3ecb1315	0.39662996
160	0x3c134742	0.008989157
161	0x3e77d0f1	0.24200799
162	0xc01ed890	-2.481968
163	0xbfc0e6aa	-1.5070393
164	0xbfede166	-1.8584411
165	0xbfd68c4a	-1.6761563
166	0x3f106a7c	0.5641248
167	0xbf2794e5	-0.6546157
168	0xbf94a05f	-1.1611441
169	0xbe292416	-0.16517672
170	0xbf53d55b	-0.8274743
171	0x3e86f381	0.26357654
172	0xbf27dcba	-0.65571177
173	0xbef270c0	-0.47351646
174	0x3e7d04b0	0.2470882
175	0x3e42c48c	0.19020289
176	0x3f1f7d8c	0.62300944
177	0x3e14c32b	0.14527576
178	0x3e463195	0.19354852
179	0x3dcb21fe	0.09918593
180	0xbf9d9963	-1.2312435
181	0x3de34f37	0.110990934
182	0xbfc67b64	-1.5506406
183	0xbecf337a	-0.4046896
184	0xbfd4ffdc	-1.6640582
185	0x3e8cb66e	0.27482933
186	0x3ef455c0	0.47721672
187	0x3f0759a0	0.5287113
188	0xbf1d39e7	-0.61416477
189	0x3e5f237c	0.2179088
190	0x3e89b158	0.26893115
191	0x3cd3bbb1	0.025846334
192	0x3e2f3be3	0.17112689
193	0xbfb45413	-1.4088157
194	0x3e408631	0.1880119
195	0x3e36a1df	0.17835186
196	0xbe56ca09	-0.20975508
197	0xbee7abe8	-0.45248342
198	0xbe569467	-0.20955049
199	0x3e8b208a	0.27173263
200	0x3ded8fe8	0.115997136
201	0x3e16e8be	0.14737222
202	0xbf0573c1	-0.5212975
203	0xbf3d39fd	-0.7391661
204	0xbf9426b5	-1.1574312
205	0xbf5eb476	-0.8699411
206	0x3e200e67	0.15630494
207	0xbf48e1fd	-0.7846983
208	0x3f28a0fe	0.65870655
209	0x3e0c2c67	0.13688813
210	0x3d8714c2	0.06595756
211	0x3e89b143	0.26893052
212	0x3e49d71e	0.19710967
213	0x3d9b769f	0.075909846
214	0x3e6195b6	0.22029766
215	0x3dd2dce7	0.1029604
216	0xbf6aef09	-0.9177099
217	0xbc57ebf0	-0.0131788105
218	0xbf324cb4	-0.6964829
219	0xbf3cb5f9	-0.7371517
220	0x3ee96327	0.4558346
221	0xbf9df1dc	-1.2339435
222	0x3ea7634d	0.32692948
223	0xbfb9007a	-1.445327
224	0x3d62cf7d	0.055373657
225	0x3e384b92	0.17997578
226	0xbff341fb	-1.9004511
227	0x3e26a995	0.16275628
228	0xbc9d104d	-0.019172812
229	0x3e6e60a2	0.2327905
230	0x3f0fdc3b	0.5619542
231	0xbfc6e786	-1.5539405
232	0xbfd73d02	-1.6815493
233	0x3d177a6e	0.036981992
234	0xbf9f2882	-1.2434237
235	0x3e26afbb	0.16277973
236	0x3ee54f15	0.44786897
237	0xbf5b01c2	-0.8554956
238	0x3e5c8ac8	0.21537316
239	0x3e088980	0.13333702
240	0xbfa4cd16	-1.2875087
241	0x3e1dea73	0.15421467
242	0x3e495547	0.19661437
243	0xbf0ed067	-0.55786747
244	0xbf305ea6	-0.6889442
245	0x3dd49417	0.103798084
246	0x3e3d7e17	0.1850513
247	0xbf62aa41	-0.88541037
248	0xbec56236	-0.38551491
249	0x3e82adad	0.2552313
250	0xbf4e5fa7	-0.80614704
251	0xbf6621e0	-0.8989544
252	0xbf95eefc	-1.1713557
253	0x3e3c0a14	0.1836322
254	0x3ac3a6c4	0.0014927019
255	0x3e4fdb62	0.20298532

classifier.6.bias f4 [11]
0	0xc0445a55	-3.0680134
1	0x3f4552d5	0.77079517
2	0xbe874cc3	-0.26425752
3	0x3e943d28	0.2895291
4	0x3f36aab5	0.7135423
5	0x3ecf6375	0.40505567
6	0x3e9a3d80	0.30125046
7	0xbb350252	-0.0027619791
8	0xbf137641	-0.57602316
9	0x3e4b1330	0.19831538
10	0xbf4f1897	-0.80896896
